models/td3/torch/BipedalWalker-v3/seed_1_FriMar1520_21_032024/final_train_model.pth (torch, 191073 bytes, 20 tensors)

actor.model.0.weight f4 [256, 24]
00000000: ed9e d13d 841b 44bf da53 ca3d b34b b13e
00000010: 3d57 8bbe 9b6f a0bd 37c1 edbd a378 3b3e
00000020: 50e2 053e d4a3 ea3d 4597 94be eec6 9cbe
00000030: 0729 763d df0c 07bd 3f33 f0bd c4f6 09be
00000040: 490d 263d 365b 1dbd 91c6 6abd be5d 1f3d
00000050: 610a b6bd 0239 083d bd6a 89bd 8a2d 5d3d
00000060: 9075 06bf 9316 1bbf b905 ed3e fd23 06bf
00000070: ce02 a4bd 22c6 873d 28eb bf3d 4d18 b2bd
00000080: 9741 82be f5e5 f2be 3a18 f2b9 ce0f a03d
00000090: 88b8 76bd 561c 6bbe 598f b9be b5b3 99be
000000a0: b39c 9fbe bf2f 4ebe a969 71be 8194 6dbe
000000b0: 107f 7ebe 3ede 7bbe 2afb 2ebe b401 3dbd
000000c0: f490 2bbf 82a9 28bf ca56 873d b65c 503f
000000d0: a39c 1cbe 199a 31bd 3e65 9b3e 9e15 43bd
000000e0: bfb2 2ebf 47b3 483d ed12 8fbe c009 32bf
000000f0: 4fc5 45bd 5d3e f23b 0448 513d d2fe f63c
00000100: d9a7 a53c 6c0d b03c 9b31 9c3d 3f5e 173e
00000110: 781d e93d 903d 13bd f653 e7bd 94ed 86be
00000120: 5987 5bbe 3517 baba 4517 3e3e 792b 7d3d
00000130: 5a0d cdbd 2ed6 443d 8e95 f2bd 155b d43d
00000140: 8bd5 d83d 8d26 b43d 13d2 3e3c b53d 07be
00000150: ce04 60bc e192 b13c aceb 383e b34e d23d
00000160: fd2b d83d 81db 1b3e 7cf1 0e3e 7944 50bc
00000170: c432 3b3d 836e e53d b016 c33d ad99 823d
00000180: 2d32 c03e 687d 1abe ae57 e13d df20 3e3d
00000190: 1693 923d b044 66be 1af1 353e c084 b93d
000001a0: 5479 6d3d c90d f23d 1b37 173e 0b83 5f3d
000001b0: 9592 82bd 3910 aa3e 1ed2 26ba 013d 3bbd
000001c0: 7ff9 173c 9b47 c3bd 2490 323d 98a8 7d3c
000001d0: 9cdb 46bd 7843 9bbd b13c dc3d facb e43b
000001e0: 0313 08be be47 f0be 7ec2 ab3c eb73 093f
000001f0: 7884 2ebe c66f 5bbe 2714 ba3e f0b0 c3be
00000200: 7d4b 043e f545 e63d fe16 07be d267 193e
00000210: c69a 6ebd 1fd0 28be d3f8 0bbe 7795 44be
00000220: 7d71 4f3a 79b5 c8bd d48b 55be f6df 6bbe
00000230: f10e 62be 35bb 16be a514 3abe 66f9 b8bd
00000240: 45ec 6d3e e512 7d3f 407c 1bbe e936 3cbe
00000250: 587f 5ebd 573f 1e3c f5f5 6e3d 1936 6f3d
00000260: 052d 94bd 6f0f fa3d 7775 043d cdb7 a1bd
00000270: 96a3 45bd 48cb 0cbe 7447 033e ea00 2d3e
00000280: 87f2 373e 4fad 393e 8aff 6b3e 8e61 6a3e
00000290: 4eda 253e 8bed e63c b1a5 d83a e315 9ebd
000002a0: b679 87bd 0c00 20bd 745f 493e b8f0 71be
000002b0: e78a 69bd ab0e 8d3d 1d22 35be 6c17 e43d
000002c0: 9247 8e3e 5b36 ad3b 5366 283e 8779 babd
000002d0: 4976 033e 1082 67bc c0d7 703d 25b6 0c3d
000002e0: f73e 01be 72a0 0d3e ddec 593d d015 76bd
000002f0: e1a0 4e3d 50a2 b73c 5c42 e73d c5c0 4c3b
00000300: 302e 3e3e d917 2d3f 7a4d 7bbe 9ba6 e43d
00000310: 9cfc 34bb 6072 0cbe 9b1d b4bd af65 413f
00000320: ad65 423e 0c1f bbbd 8d78 be3d 6298 303e
00000330: 9616 dc3d bfe7 e13c 9a19 c0ba c180 f73d
00000340: 4854 093e f6fd 7b3d ab46 2e3e 2bb9 aa3d
00000350: f8f0 b73d c61f be3c 0e0b 5d3d 62f4 85be
00000360: efda 2bbf b37a babe 24e8 3e3d a96c bebe
00000370: 6043 82bd da36 0a3c 5fd2 343e ea57 13bd
00000380: 8828 6dbd 7c5e 26bf d1e5 393d b110 9abd
00000390: 0c00 e9bd 6da6 23be 1561 6dbe 8f07 51be
000003a0: e6b8 75be 9aab 6fbe b7ac 6bbe 2d9d 96be
000003b0: 999e 66be 5ff2 49be c367 50be 3f72 50bd
000003c0: 4440 8cbe ab2e 71be 574c aabc 67eb 313e
000003d0: 9674 abbd f05a 0b3c bd68 0ebe 004a c8bc
000003e0: 05b1 af3c d8ab 51bd f6c8 89be d67f e1bd
000003f0: 2b30 bdbe 7b97 883e fdfc b13d 6880 003d
0.10235391 -0.76604486 0.09879275 0.34628066 -0.27214995 -0.07833787 -0.116091184 0.18307738
0.13074613 0.11457029 -0.2902166 -0.3062052 0.06009772 -0.03297126 -0.117285244 -0.1347304
0.040540013 -0.038417064 -0.057318274 0.03890776 -0.08888698 0.033257492 -0.06709812 0.053998508
-0.52523136 -0.6058132 0.4629343 -0.52398664 -0.080083475 0.06629588 0.09371024 -0.08696041
-0.25440666 -0.47441068 -0.00046175887 0.078155145 -0.060234576 -0.22960028 -0.36242178 -0.30019918
-0.3117424 -0.20135401 -0.23575462 -0.23201181 -0.24853158 -0.24596497 -0.17087999 -0.046144202
-0.67018056 -0.6588365 0.066083506 0.81391466 -0.15294127 -0.04335985 0.3035068 -0.047628038
-0.68241495 0.048999097 -0.27944127 -0.6954613 -0.04828387 0.007392688 0.05109407 0.030150805
0.020221638 0.021490775 0.07626649 0.14782046 0.11382574 -0.035947382 -0.11295311 -0.26353133
-0.2143835 -0.001419759 0.18563564 0.061809037 -0.10012312 0.04805582 -0.118449315 0.10368935
0.10587605 0.087964155 0.011646765 -0.13207133 -0.0136730205 0.021676483 0.18058652 0.10268917
0.10555265 0.15220453 0.13959306 -0.012711638 0.04570271 0.11202719 0.09525812 0.063769676
0.3753828 -0.15086901 0.11003052 0.046418067 0.07156961 -0.2248714 0.17767754 0.09058523
0.057977036 0.118190356 0.14767115 0.05456833 -0.063756146 0.33215502 -0.00063637074 -0.045712475
0.009275793 -0.09535142 0.043594494 0.01548209 -0.04854928 -0.07581228 0.107537635 0.0069823237
-0.13288502 -0.46929735 0.020966765 0.536925 -0.1704272 -0.21429357 0.363435 -0.3822093
0.12919421 0.11243812 -0.13192365 0.1498101 -0.058253072 -0.16485642 -0.13669138 -0.19197641
0.00079133344 -0.09800238 -0.20854121 -0.23034653 -0.22076012 -0.14719851 -0.18171938 -0.09031944
0.23234661 0.98856956 -0.15184116 -0.18380322 -0.054320663 0.009658656 0.05834003 0.0584012
-0.07235149 0.12209975 0.032338586 -0.07896385 -0.04825171 -0.1374942 0.12820226 0.1689488
0.1796361 0.18132518 0.23046699 0.22888777 0.16196558 0.028189441 0.0016528872 -0.07719018
-0.066150114 -0.039062545 0.19665319 -0.23626983 -0.057017233 0.06887563 -0.17688794 0.1113728
0.2778898 0.0052860207 0.16445284 -0.09105211 0.12838091 -0.01413013 0.058799505 0.034353394
-0.12621675 0.13830736 0.053204406 -0.060079396 0.050446395 0.022416264 0.11291954 0.003124283
0.18572307 0.67614514 -0.24541274 0.1116459 -0.0027616387 -0.13715506 -0.08794709 0.7554578
0.18984099 -0.09136781 0.09300337 0.1724563 0.107464954 0.027576325 -0.0014656067 0.12085105
0.13411057 0.061521493 0.17019145 0.08336099 0.08981508 0.02320851 0.05396562 -0.26163012
-0.6713094 -0.36421737 0.046608105 -0.37192276 -0.06360507 0.008435929 0.17658375 -0.035972513
-0.05789998 -0.6498792 0.045385186 -0.07522715 -0.11376962 -0.15981455 -0.23181565 -0.2041304
-0.23996314 -0.23405305 -0.23015104 -0.2941679 -0.22521438 -0.19721363 -0.20352082 -0.050890204
-0.2739278 -0.23552959 -0.020788355 0.17374955 -0.083718464 0.008505568 -0.13907142 -0.024449348
0.021446714 -0.051189274 -0.26911134 -0.11010711 -0.36950812 0.2667807 0.08690832 0.031372458

actor.model.0.bias f4 [256]
00000000: ad6d a33d 6dc0 00bc 4656 62be 08d8 e23d
00000010: fb2b 623d 2953 a9bd e540 9bbd 70ed f73c
00000020: 4f40 32be 8442 27bd 3b66 513d 1904 363d
00000030: 4944 3c3e 5915 063d 2d4f 49bd 326f 9dbd
00000040: 8d20 a8bd 9e4e 76be 6594 703d da3b 2b3b
00000050: d365 833d a80c 633e 7db4 073b 32a7 20be
00000060: 83b2 0cbc 8a34 d53d 7d22 293e 92ed 28bd
00000070: ab0a 0a3e 28ec 3d3d b326 8bbd 35ba 37bd
00000080: 28d4 f4bd 193c 1a3d 76fe 80bc 467b 1cbb
00000090: 40be db3c 3ba7 043d e042 c73c 3faa 85bd
000000a0: 0355 a3bd 0b36 033d 9819 6cbc c5c5 fd3a
000000b0: e61c 1f3c 5992 503c 7203 1dbd 12dc 9c3d
000000c0: 42d5 3dbe 06d1 023b b6f4 293e dae4 1b3e
000000d0: 88c4 60bb b3db dbbd c19a 563d 2978 b2bb
000000e0: e75a 30bd 71a8 033e 49ad ffbd 8a50 21be
000000f0: 2a73 0abd 5bf7 5b3c 8032 cebb 7862 023d
00000100: a305 a4bd 034d 3d3e 0933 f23c 72a4 ce3d
00000110: e2e5 90bd bc06 0e3c 0481 b63c 6de5 05be
00000120: 58f4 4e3d a507 0b3d e5a1 11be 784e 9ebd
00000130: 980d 1e3d 20b8 febd 2601 c33d 4c05 fc3c
00000140: ee9a 1cbe 8036 e3bd c5a5 89bb 3bfe 8dbd
00000150: 3012 963a 2cef e2bd 8d78 adbc c714 0c3d
00000160: 4eeb 9b3a e062 b83d 7f68 15bd 5265 e5bd
00000170: 8585 f3bc ceb3 863d ca7b 703e 9b43 a43d
00000180: be95 9dbc 9e0c ea3a 2ed5 ff3c d80e 02be
00000190: bec0 053d db88 be3c 96c5 033d ff47 07bd
000001a0: 0a3e 993d d067 593d 54cd c93d 42a8 1bbe
000001b0: 5659 4bbb cdeb b3bb 2c62 243d abd6 703d
000001c0: a8eb 8f3e 4c87 493e 329a 30be ef95 10bd
000001d0: 9974 923d 3e10 7dbd 189b bd3d 324e 233b
000001e0: 0113 22bd 7140 8a3d 5fb7 5e3e 97f3 463d
000001f0: 92b8 1fbe f61c 673e f969 0a3e 9e1e eabc
00000200: 014d 09bd d9c9 66bd 28e8 62be 89b7 53bc
00000210: f2f8 0dbe bd39 5bbd 6c82 f33d 416a cbba
00000220: 04e1 48bc 83b8 96bd 0fc1 cc3d 7e8a e83b
00000230: 56dd f3bc 2cb8 69be faf1 723d 27ae 223d
00000240: 4245 00be 6c49 98bd 6fc3 6e3c 2928 303d
00000250: bfa8 153d c28e 37be 2ce7 5cbc 8a86 48be
00000260: 0474 8e3d 6c83 32bc 47d5 0bbd f45e 88bc
00000270: bece 8dbd f92b 28bc 4e04 313e 5df4 073d
00000280: 30f3 173d adb1 bfbc ec22 053d 8e15 babc
00000290: 76ad f3bd 86ce b3bc 3af1 403a 176c 963d
000002a0: 3769 453d c4f5 db3c 5d87 4f3d 89ea a0bc
000002b0: a65d e7bd 6351 af3b b5e1 f5bc 65d9 ed3d
000002c0: c223 fc3d 1bea 7f3d 433e 413b 29f3 0ebe
000002d0: 4f41 69bd 909a 2e3b 2b78 1fbe 6f41 84bd
000002e0: 2ad3 bcbd e043 643d 210b d03c 8cd5 87bd
000002f0: ee43 95bd cddd 953d 6a18 3a3e 1986 b03c
00000300: 8a10 a8bc 5843 81bc a4d3 403d 7d3b 473e
00000310: 4675 2ebe 1e24 703c edd7 a2bd 2dd5 a53c
00000320: 2d48 5b3d 93a9 fabd 441d 8a3d 6a06 123b
00000330: 80de 523d 68ab ab3d a8ab 49be aea7 923c
00000340: 1e09 02be 674a 95bd d3ee 1cbe 1e34 9b3d
00000350: a9ed bbbd 3e93 b43d 2d40 b33d 7f44 e53d
00000360: 93c5 823e aa00 403b b73d 49bc 1d32 253d
00000370: b1d7 413d fef1 073e f5ad 42bc c673 2dbd
00000380: b6c1 00be 25ee 773d 486c 5fbd 439e e8bb
00000390: c7f2 823e bf03 84bd d16b aa3d 5ccf ccbc
000003a0: dc6f 3b3d f359 9d3d 73c3 02be fc5f 593d
000003b0: 062c 1fbe 9df8 00be 76e1 9d3d d90e c83d
000003c0: 8c9b 8f3d 73a5 a63d 46ff 30be fede 073d
000003d0: f7df 1cbe e774 3e3d 3972 22be 257c 533d
000003e0: 7307 f53d c55c e3bd fab1 c43c d2f8 aabd
000003f0: 0f59 2a3e 1c76 f63d 97e6 43be 226b aabd
0.07979903 -0.007858378 -0.22103223 0.11076361 0.055217724 -0.08267815 -0.07580737 0.030264586
-0.17407344 -0.04083492 0.051122885 0.0444375 0.18385424 0.032735202 -0.049147774 -0.076872244
-0.082093336 -0.24053428 0.05873527 0.0026128204 0.06415906 0.22172797 0.0020706945 -0.1568878
-0.008587482 0.10410412 0.16517062 -0.04124219 0.13480632 0.046367794 -0.06794491 -0.044855315
-0.11954528 0.03765497 -0.015746336 -0.0023877188 0.026824117 0.032386046 0.02432388 -0.065266125
-0.07975199 0.03203396 -0.014410399 0.0019361308 0.00971148 0.0127302045 -0.038333364 0.076591626
-0.18538383 0.0019961013 0.16597256 0.15224019 -0.003429683 -0.10735264 0.05239368 -0.005446453
-0.04305544 0.12857224 -0.124842234 -0.1575338 -0.033801235 0.013425673 -0.006292641 0.03183219
-0.080088876 0.18486409 0.029565351 0.10089959 -0.07075097 0.008668598 0.022278316 -0.130758
0.050525993 0.033942837 -0.14221914 -0.077298105 0.038587183 -0.12437463 0.095217034 0.030764244
-0.15293476 -0.110943794 -0.0042006695 -0.06933256 0.0011449512 -0.11080775 -0.021175647 0.034199502
0.0011895688 0.09003234 -0.03647661 -0.11200966 -0.029726753 0.06577264 0.23484722 0.08020707
-0.019236442 0.0017856543 0.031229582 -0.12700975 0.032654516 0.023258617 0.032170855 -0.033027645
0.07482536 0.05307752 0.09853616 -0.15200904 -0.003102859 -0.005490756 0.040132686 0.058798473
0.2810948 0.19680518 -0.17246321 -0.035299238 0.071511455 -0.061783068 0.092580974 0.0024918434
-0.039568905 0.067505725 0.21749638 0.04857215 -0.15597752 0.22569641 0.13516988 -0.028579053
-0.033520702 -0.05634484 -0.22158873 -0.012922176 -0.13864496 -0.05352186 0.118901104 -0.0015519337
-0.012260679 -0.073594116 0.099977605 0.0070965877 -0.029768627 -0.22824162 0.059312798 0.039716866
-0.1252642 -0.07435879 0.014572962 0.04300705 0.036537882 -0.17925552 -0.01348285 -0.19582573
0.06955722 -0.010895591 -0.034138944 -0.01664684 -0.069241986 -0.01026439 0.17286798 0.033192027
0.037097156 -0.023400152 0.032504007 -0.022715356 -0.118983194 -0.021949064 0.00073601643 0.07344835
0.048196044 0.026850589 0.0506662 -0.019643085 -0.11297159 0.005350278 -0.030014852 0.1161373
0.12311508 0.06247912 0.0029486574 -0.13959946 -0.05694705 0.002664242 -0.15573184 -0.06457793
-0.09219964 0.055728793 0.025395932 -0.06632528 -0.07288347 0.07317696 0.18173376 0.021548318
-0.020515699 -0.015779182 0.047076836 0.19456287 -0.17036924 0.0146570485 -0.07951341 0.020243252
0.05353563 -0.12239375 0.06743863 0.0022281655 0.051481724 0.083823025 -0.19694388 0.017902222
-0.1269879 -0.07289582 -0.15325479 0.075783 -0.091761895 0.08817147 0.08752475 0.11194705
0.25541362 0.002929727 -0.01228278 0.040330995 0.04732484 0.13275906 -0.011882295 -0.04234674
-0.12573895 0.060529847 -0.054546624 -0.0070989444 0.2557585 -0.06446027 0.083213456 -0.02500122
0.045760974 0.07683172 -0.1276987 0.053070053 -0.15544137 -0.12594838 0.07709019 0.09768457
0.0701209 0.08137026 -0.17284879 0.033171646 -0.15319811 0.046498206 -0.15863885 0.051632065
0.119643115 -0.11101679 0.024010647 -0.0834824 0.16635536 0.12034246 -0.19130932 -0.08321215

actor.model.2.weight f4 [4, 256]
00000000: 4b2d ae3d aa2f fcbe 9d6d 2fbe 1eba 04bd
00000010: b8ef d93d 9d4e b03d 9122 efbd 6d8c a2bb
00000020: 5654 293e 56a0 e7be ae1c 123e a705 7a3e
00000030: f28b 87be 8090 babd 0d3f f2be 0e40 3dbe
00000040: 49be 7cbd b019 91be da08 a6bd 40cb 98be
00000050: 4d82 1cbe 5589 74bf f7da 07bc 9dd8 78be
00000060: 84c3 c0bd edea b5be 30c4 b63e f437 b53e
00000070: efea bcbd 9f8b 033e 73db a4bd 78e1 81be
00000080: 7b5c d9bc 09bf 1bbe 4b60 cabe a951 bd3e
00000090: 64c9 a6be 1479 33be 91b8 633d b65f acbe
000000a0: e2f7 8a3e 5952 213e e91a 043f 3c2a e23d
000000b0: 68fb 60be 3181 82be 2e87 0bbf 96f5 67bd
000000c0: 9d5b debc 6a42 77be a81b 5fbd d09e 573d
000000d0: 1788 cd3e ca18 a53e 5a67 acbc 5878 e3be
000000e0: f391 88bf a1f5 1f3c 6600 abbe a691 b23e
000000f0: 7157 23be d9d4 d5bc 743a a73d d6ff 433d
00000100: 24e7 703e c38f b23e a4da f33e 7a02 8a3e
00000110: 5a77 863e 53f1 0c3f a1ce 86bd 5787 c6bd
00000120: 5b7a 193e cdbc 2bbe 5780 3fbd 4cb7 7e3d
00000130: dfbb a73e 7f73 09bf 2c7e 47be 4dfe ed3d
00000140: 63d9 e33e c01e 9a3e 8b45 1abe 2b81 423e
00000150: 8afb 973e 629d 1cbd 0158 3f3e 8837 0f3e
00000160: f958 ea3c 0f8a afbd b301 07bf d1a3 523e
00000170: 53c5 1dbf eee2 05bf 0930 7cbf a35f 923c
00000180: aa23 a43e 9cb7 ff3d 6d06 163e 2658 f43d
00000190: f134 cc3e 705e 803e 2f5e 31be fd5c 7abe
000001a0: 2539 39bd 2303 9bbd b24b 29bc b584 483d
000001b0: 1b60 bb3d 5d3d 6c3d 29be 87bd f0d3 9d3e
000001c0: 2a30 71bf 4370 54bf f2d4 a2bb f976 dcbd
000001d0: 08b9 c13d 4b89 a4be 7785 5dbf 1aa0 da3d
000001e0: 1840 1ebe 280f 40be 7ca5 23be d242 543d
000001f0: 6d96 a8be 8e3b 43bf 9932 833e 3df3 76be
00000200: 23c6 3a3e 8d65 f3bb 7077 e5bd 9344 d43b
00000210: 89d4 c93e 2f64 85be 41f1 113d 494c b9bc
00000220: 1ae2 08be f9c3 853e b638 20be 14e5 12be
00000230: 84db 20bf 3644 5cbe 3402 acbd 66b1 a43d
00000240: 9430 10be 71f3 6a3e 9bac 383c ae1d ff3d
00000250: 8c36 ac3d 7a9d 6d3e 4f73 f73d b46b 963e
00000260: 2e1b 7c3e 9675 babe 02c2 e73e 6796 a23e
00000270: 3964 c6be 7350 42be 51cd 50bf e86e 83bd
00000280: 85a2 85be 5e69 93be 732c f43d ff0c 4fbd
00000290: 29d0 f3be 9655 e1bd 9203 47bc 8228 933d
000002a0: b781 b1bf fe20 be3c 2593 98be dc3e d83d
000002b0: 468e 483d 29ca 373e d590 54bf 9dd8 db3d
000002c0: 69c8 a1bc 0623 d9bc 5ab0 bbbe 0b25 bfbe
000002d0: c83c 093f aad7 b9be 50ac 11bf 561d b23d
000002e0: 500d c4bc 7f0e 0dbe 4985 8fbd f1e8 e13e
000002f0: 1066 eebd 2494 4b3e 3a7a 25be 40cd 073f
00000300: 2f1d 753e b221 d63e 7a2d 953c 4201 49bf
00000310: cd26 bdbe 5d0d 1e3d 2a24 43be 8899 943e
00000320: c933 42be 14a8 61be 5fdb 8a3c a929 6a3d
00000330: 8914 ae3e 6acc 8abe 34f0 2e3e bfb8 1d3f
00000340: 50fa b73d 3455 a8bd 605f c8bd 375a 1b3e
00000350: eb72 bebd 5832 3fbf 9412 1cbe 1652 3d3d
00000360: a6bc 653f 3753 c3bc 3039 3d3e 28bd 0ebe
00000370: 159c 803d 5610 1f3d 9cc2 45bd 1a3d 69be
00000380: c1d1 39be d9a9 b0be 7404 d13a c07e fdbe
00000390: 0264 dbbd 17ef 203e 036d 43be 56f7 60be
000003a0: 3a31 aa3e f607 b5bd 03d4 a13d 0f4f efbc
000003b0: 66c3 3e3e ca49 ccbe 9918 4ebf 3632 823e
000003c0: c269 03bf a9b2 06bf b62b 323e 0e8c b8bd
000003d0: d80c 56bc 1dee 85be f71c 76be d428 38be
000003e0: e2e8 77bf 4a50 d2bd 1d37 abbe d72f fbbd
000003f0: 14ae 243f 5bcb 26be f448 eabe ba95 95be
0.08504733 -0.49255115 -0.17131658 -0.032404058 0.10641426 0.08608744 -0.11676515 -0.0049605877
0.16536078 -0.45239514 0.14268753 0.24416219 -0.26473957 -0.091095924 -0.4731373 -0.18481466
-0.061704908 -0.2833991 -0.08107157 -0.29842567 -0.15284081 -0.9552205 -0.008291951 -0.24301381
-0.09412292 -0.35530797 0.35696554 0.3539425 -0.092244975 0.1284623 -0.08049669 -0.25367332
-0.026533356 -0.15209593 -0.3952659 0.36976364 -0.32575524 -0.17526656 0.055595938 -0.33666772
0.27142245 0.1575407 0.5160356 0.11043212 -0.21970904 -0.2548919 -0.5450314 -0.056630693
-0.027143294 -0.24146429 -0.054469734 0.05264169 0.4014289 0.32245475 -0.021045376 -0.44427752
-1.066954 0.009763152 -0.3339874 0.34876746 -0.15951325 -0.02610247 0.08165446 0.047851406
0.23525673 0.34875306 0.47627747 0.26955014 0.26262933 0.5505573 -0.0658238 -0.09693783
0.14988081 -0.1677124 -0.046753254 0.062186524 0.32760522 -0.5369186 -0.19481725 0.1162077
0.4450179 0.30101585 -0.15065591 0.18994586 0.29684097 -0.03823603 0.18685915 0.13986027
0.028606879 -0.085712545 -0.5273697 0.20570303 -0.6162922 -0.5229939 -0.98510796 0.017867869
0.3205846 0.124861926 0.14650889 0.119308755 0.3988414 0.2507205 -0.17321084 -0.24449535
-0.045220513 -0.07568958 -0.010332989 0.048954684 0.0914919 0.057675708 -0.06628067 0.30825758
-0.9421412 -0.829838 -0.0049692327 -0.1076488 0.0945912 -0.32135996 -0.86531776 0.10675068
-0.15454137 -0.18755782 -0.15981096 0.051821537 -0.32927266 -0.7626275 0.2562454 -0.24116226
0.18239646 -0.0074278773 -0.112044215 0.0064779012 0.39419964 -0.26052997 0.03563047 -0.022619383
-0.13367501 0.26126078 -0.15646634 -0.14345199 -0.62834954 -0.21510395 -0.08398858 0.080416486
-0.14081031 0.22944428 0.011271621 0.12456833 0.084088415 0.23204604 0.1208254 0.29379046
0.24619743 -0.36417836 0.45265204 0.31755373 -0.3874834 -0.18976001 -0.8156329 -0.06417638
-0.26100555 -0.28791326 0.119225405 -0.050549503 -0.4761975 -0.11002652 -0.012146847 0.071854606
-1.3867711 0.023209091 -0.29799762 0.105588645 0.048963808 0.17948212 -0.83033496 0.10734675
-0.019748883 -0.026505958 -0.36657983 -0.3733295 0.5360837 -0.3629735 -0.56903553 0.08697002
-0.02393213 -0.13775061 -0.07007844 0.44123033 -0.116405606 0.1988073 -0.16159907 0.5304756
0.23936914 0.41822582 0.018210161 -0.78517544 -0.36943665 0.038586963 -0.19056764 0.29023385
-0.18965067 -0.22036773 0.016950307 0.057168636 0.34000042 -0.2710908 0.17083818 0.61610025
0.0898329 -0.08219376 -0.09783816 0.15171133 -0.092992626 -0.74686193 -0.15241462 0.04622086
0.8974098 -0.02384339 0.18478847 -0.13939345 0.0627977 0.03883394 -0.048281297 -0.22777215
-0.18146421 -0.34504583 0.0015946762 -0.49510765 -0.10712434 0.15716206 -0.19084553 -0.21969351
0.33240682 -0.08839409 0.07901766 -0.029212503 0.18629226 -0.39900047 -0.80506283 0.25428933
-0.5133325 -0.52616364 0.17399487 -0.09011088 -0.013064586 -0.2615823 -0.24034487 -0.17984325
-0.96839726 -0.1026922 -0.33440486 -0.12264984 0.6432812 -0.16288511 -0.45758784 -0.29215795

actor.model.2.bias f4 [4]
00000000: dc79 873c b968 253e 8067 4d3b a5b3 543d
0.0165376 0.1615323 0.0031342208 0.051929135

criticA.model.0.weight f4 [256, 28]
00000000: b261 5dbf cd95 0cc0 0f0c 733f 5d36 303f
00000010: c036 1abf a237 2ebe 0eb4 93be 630c 27bd
00000020: 7b6a c03c c0e4 c03b d221 d03d 8f3c 04be
00000030: d431 073c b76d 88bd 0677 f53d a8e5 e83d
00000040: d7b1 413e 70be 0a3e 97ac ddbb c67f c43d
00000050: 4fe6 373e 70a8 9e3d a538 f6bd a3e4 0abe
00000060: f5f0 afbd ca10 3e3d 1abb 833e 2d7f 92bd
00000070: c232 ecbd 64fb fd3e 7c10 db3d a804 60bf
00000080: 7f93 89bc 4705 b13d 438a e3be 2de9 ba3d
00000090: 4e8b b33d 1e02 963e 7296 9f3d 07b0 1d3f
000000a0: 5b74 cd3d 68d1 be3d e75b b8be 1d78 d0be
000000b0: aa30 c9be 6a9f afbe 40e1 b1be 7f57 d1be
000000c0: 724b 05bf 6026 abbe 8b68 29be 6371 8f3e
000000d0: 6a32 2e3d d078 13be b630 c7bd efc8 a13d
000000e0: 9ae5 663d 4c1a 973f a084 163e 279f c2be
000000f0: 0b7d d13d 6338 783d 5bb4 fe3e ce7e 243d
00000100: cea9 82be 0f1f 3f3f 5c0c a03d b47b 0e3f
00000110: a91c df3d f2a8 393e 8bcf 42bd 40e8 02be
00000120: 8f62 bb3c f6c2 00bd 0b07 27bd f11a 3ebd
00000130: d2ba 34bd 083e 36bd 472f 3abc 4293 553b
00000140: 4e91 873c ee91 d2bd d3cc 1bbc afd0 e33d
00000150: 8b1f ff3d 895e b33f b3dc bf3e 4ab2 19bf
00000160: 92d8 f03d 613e 22be c17a febe 702b c7bd
00000170: 8b92 5abe 4ff6 ffbd 97e3 fe3d d076 1fbd
00000180: 191c 243e 8b4a 593d 582a e83d a8f4 013e
00000190: 2427 a43d 52c4 023e f326 133e faa0 163e
000001a0: ae1d 543e 2f1c bd3d 2915 953e ae28 83bd
000001b0: 6d6d 893d dab0 bfbd b772 32ba 2c0b ae3a
000001c0: 29f7 8cbf 1294 49c0 70e2 a03e 88f7 913e
000001d0: 6d20 c8ba ef62 89bd 402b e2bb fbdb 47bd
000001e0: 726a 843c 92d9 47bf 72e7 acbd f05a d3be
000001f0: 4aed 5ebd f327 0fbd 57c5 e83d 5483 193d
00000200: 10a3 e2bc 8629 fabd f013 8d3d 4352 543c
00000210: 04a6 f2bd 3671 c53d 1a45 5fbe a6dc 343e
00000220: 3be8 683d abbc ebbc c1ca e23c 8c1e 1e3d
00000230: 960d 243e ffc2 5a3f ca3a 913e bf98 2d3f
00000240: 49bd 3e3e ed0c b43d 5e1a d03d 8722 d13c
00000250: 897c a03c 58d2 ad3d 59dc 4ebb 275e b6bd
00000260: 1f91 b2bc aaeb 603c 926b c63c a029 063e
00000270: ac86 9d3d 5128 d03c 002a ca3d e1b1 1a3e
00000280: 8a83 d53c c2d2 b4bd 2d72 923e e77f 2d3d
00000290: aa8e e1bc bc0a cf3d 8b9a c7bd b0ae 14bd
000002a0: bd4d aebd 21f6 e93a 46b6 ffbd 31a0 81bf
000002b0: b274 5dbe 75fa a7be 6876 92be 3b68 743d
000002c0: 1102 1bbf be99 9dbe e1e9 503e dd41 b5bd
000002d0: 8258 e6be 73c2 b5be cfe0 1abf b8a4 12bf
000002e0: 1f25 1cbf ad69 08bf 1bd7 1fbf 60e3 19bf
000002f0: 390d efbe f8ff 22bf 02a3 37bf 0764 ad3d
00000300: de1b 0ebe e340 53be 3b1b e6be 6ee8 3ebd
00000310: 12ab 48bf 380e 4cc0 2d91 b33c 2e21 453f
00000320: 754a 223e dd07 e9bd fe25 f3bc 17a4 913c
00000330: cba0 8bbd 8a99 2abf 1b81 1fbe ee47 f9be
00000340: d82b b1bd bcee 373d 0adf 193c 6162 203e
00000350: 8341 0b3c 41d9 d7bc beea 8c3d 3af9 22bd
00000360: 71a8 413d 75af 673d 9597 093d 8b4a 613e
00000370: 184f af3c d9ad 593c c432 11bc 4317 2ebd
00000380: 1246 723e 44f5 dbbe f3d1 15be 247e 493e
00000390: aed2 e5bd 3617 42bd 7dbe 663d 75b1 853c
000003a0: d55b 8e3e 54a1 713e ddad bebd bff6 8e3a
000003b0: 216d 783d 8b63 863d 6970 843e a87a 0b3e
000003c0: 5edc ab3e 24e8 383e 6aea 293e ca21 d13d
000003d0: 0a98 733e edc5 db3d a294 e83d 1f0a 843e
000003e0: 98fc 933d f2bf 8a3d 850a 9bbd a3c9 a4bb
000003f0: f743 3abf 6972 3d40 c579 873e ee24 293f
-0.86477196 -2.196643 0.94940275 0.6883295 -0.6023979 -0.1701341 -0.28848308 -0.040783297
0.023488274 0.005886644 0.10162701 -0.12913726 0.008251626 -0.066615514 0.119855925 0.113719285
0.18915497 0.13549209 -0.006764959 0.09594683 0.1795895 0.07746971 -0.12022523 -0.1356378
-0.08590881 0.04640273 0.25728685 -0.07153163 -0.11533119 0.49605858 0.106965035 -0.87507105
-0.016793964 0.08643585 -0.44441423 0.09126506 0.08766805 0.2929849 0.07792367 0.6159672
0.10031959 0.09317285 -0.36007616 -0.4071664 -0.3929494 -0.3430131 -0.34742165 -0.40887067
-0.52068245 -0.33427715 -0.16543786 0.28016195 0.042528547 -0.14401555 -0.09726088 0.07899653
0.05637131 1.18049 0.1469903 -0.3801205 0.10228928 0.06060065 0.49746975 0.040159993
-0.25520176 0.74656767 0.07814857 0.55657506 0.10894138 0.18130854 -0.04756121 -0.12783909
0.022874145 -0.03143593 -0.0407782 -0.046412412 -0.04412348 -0.04449275 -0.011363811 0.0032588993
0.016548779 -0.1028174 -0.009509283 0.111237876 0.12457188 1.4013225 0.37473068 -0.6003767
0.117600575 -0.15844108 -0.4970303 -0.09725082 -0.21344964 -0.124981515 0.12445753 -0.038931668
0.16026343 0.053049605 0.113362014 0.12690985 0.08015278 0.12770203 0.14370327 0.14709845
0.20714447 0.09233891 0.29117706 -0.064042434 0.067103244 -0.09359904 -0.0006807255 0.0013278476
-1.1012927 -3.1496625 0.31422758 0.28509164 -0.0015268453 -0.06708323 -0.0069021285 -0.048793774
0.016164038 -0.7806636 -0.08442582 -0.41280317 -0.054425515 -0.034950208 0.113657646 0.03747876
-0.027665645 -0.12214951 0.068885684 0.012959066 -0.11848071 0.09640734 -0.21803704 0.17662296
0.056862097 -0.028776487 0.027684571 0.03860335 0.16020808 0.8545379 0.28365165 0.678112
0.18626894 0.08791528 0.10161279 0.02552916 0.019590633 0.084873855 -0.0031564443 -0.08904677
-0.021797715 0.013728062 0.024221215 0.13101816 0.07691702 0.02540985 0.09871292 0.15106918
0.0260637 -0.08829261 0.28602734 0.042358305 -0.027533848 0.10109469 -0.097462736 -0.036299407
-0.08510921 0.0017849841 -0.12485938 -1.0127012 -0.21626547 -0.3280827 -0.28605962 0.059669714
-0.6055003 -0.30781358 0.20401718 -0.08850453 -0.449894 -0.35499915 -0.6049928 -0.5728259
-0.6099414 -0.5328625 -0.624376 -0.6011257 -0.46689776 -0.6367183 -0.71733105 0.08466344
-0.13877818 -0.20630221 -0.4494265 -0.04660838 -0.7838603 -3.1883678 0.021919811 0.77003753
0.15848716 -0.11378453 -0.029681202 0.01777844 -0.06817778 -0.6664053 -0.15576594 -0.4868769
-0.08650941 0.04490541 0.009391556 0.15662529 0.008499506 -0.026348712 0.06880711 -0.039788462
0.04727978 0.056563813 0.033591826 0.22001092 0.02140002 0.013286077 -0.008862201 -0.042502653
0.23659542 -0.4296056 -0.1463087 0.19677025 -0.112218246 -0.047385417 0.056334008 0.01631997
0.27804437 0.23596698 -0.093105055 0.0010907276 0.06065095 0.06561955 0.25867012 0.13621008
0.33566564 0.18057305 0.16593328 0.10211523 0.23788467 0.10731111 0.113564745 0.25788972
0.07225913 0.06774892 -0.07570366 -0.00502892 -0.72759956 2.960108 0.2646009 0.66071975

criticA.model.0.bias f4 [256]
00000000: 1378 143d 5fc8 123f 9d6d 553c 6309 b6be
00000010: 866f 773e 5a61 94be ba72 ad3e fb2d af3d
00000020: 1451 a03e 2000 edbe 06b9 fd3d 75b5 893e
00000030: bab2 753e dfde ac3e a6ed 343e 47bf d5be
00000040: ba02 e0bd 420d cdbd 1472 0e3d 2f60 733e
00000050: 11da a8be be65 da3e d8c9 883e aba8 5abe
00000060: 700e 453e a650 013e 56fb 033e 7205 413e
00000070: 2bfd 8e3d 3bbf 883e 0b32 433e fe4b 583e
00000080: 4951 7b3e 4553 843e d432 303e 143c debd
00000090: 418e 883e b0e0 b5be 5d37 e9bd 1c35 663e
000000a0: 8305 153e 90b7 de3d a8b3 fd3c 0bc4 cabd
000000b0: 09a1 ea3d 260a 733e 28fc 843e 0377 fbbe
000000c0: 1aa0 c1be fd28 953e c1b6 293e 9749 533e
000000d0: bd6b bb3d c49a 8a3e 4606 bcbe a65d de3d
000000e0: dac9 2c3e 6bd4 e93d ad55 a93e 8baf 9f3e
000000f0: 7bce cd3e 9dd5 833e 6584 5a3e 85ee 8b3e
00000100: 7325 a73d f5ef 753e 251e 533e 4f17 923e
00000110: 0ee3 a6bd dc66 153e 0ab0 aebe ce1a 8e3d
00000120: 58c8 893e e3e0 d13e 4a82 423e c1aa 463e
00000130: 8eb6 7d3e 09dd 883e f050 6d3d c189 4f3b
00000140: 576c 4b3e 0c19 843e e3fe 76bc b6c9 3f3e
00000150: 790b 633e d51c ccbe c9e8 2f3e 7c43 c03e
00000160: 3503 a9be 1677 573e 069b 243e fae2 8a3e
00000170: e4a0 8a3e 88ad 293e 936b e13e 5d0e 843d
00000180: 2a44 ae3d 1375 b23e 2ad5 993d 0383 31bd
00000190: 5657 ab3d 2896 7f3e 76c4 683e d1a6 0b3d
000001a0: 2d7e b23d fe54 433e 71a7 933e 8cd8 8ebd
000001b0: 9a2a d53d 7f27 81be d88f 413e b551 953c
000001c0: 34d3 19be b0a1 903e b3ac 4e3e 106d 833e
000001d0: 43cb 8a3e 0f2b 303e b0ca b3bd 5b05 713e
000001e0: f654 523d 6271 943d ee20 fb3e 8220 5a3e
000001f0: 75f9 87be 3521 8fbe 81d7 593e 5096 2f3e
00000200: e2cb 39bd 4a06 e03e ae13 053d 7293 66bd
00000210: aaf1 42bd b245 98be c2db b43e b859 a23e
00000220: f462 a23e bde1 7fbe e42b ef3d b1e6 823e
00000230: 20ce 633e cf59 193d 40cb a43e b5f2 dc3e
00000240: fe00 4e3d 6cb6 883e b8fa 86be df87 a63e
00000250: 9adf 89be 66d6 153e c0c2 863e 7fe6 3f3e
00000260: 4192 9bbe 9311 41be 5228 a93e 24dc 59be
00000270: 6b0d f3bd 4f09 5a3e 28c8 b33e 293b c73d
00000280: 8ea0 b83e 0d99 2bbd 6c81 a0bd 6816 923e
00000290: 0b6d 9b3e 2897 a1be d2c5 bfbe da20 5c3e
000002a0: b7da 9fbc 3594 893e a5f6 4ebe 129b 633e
000002b0: 8415 49be 91a9 db3e c598 02bf 1d58 083e
000002c0: 022a d6be 08f3 953d b2d2 353e c8d6 8d3e
000002d0: c6c2 943e 8fe1 75be 6e13 623e 44da 7c3e
000002e0: a3fd 303e 7514 d73e 5106 063b b019 e43e
000002f0: 5223 abbe 6c3b 633e 8a1d 9dbe a253 d33e
00000300: af44 a53e 1bf3 943e 4361 61be 7599 1a3d
00000310: 458c 723d d153 263e 345f 163e b747 463e
00000320: 4fee 883d c1fe d83c 48fb 973e 6fa0 833e
00000330: 75f5 19be 54a9 763e f822 873e e19e 9c3c
00000340: 1cb7 063f 9b71 da3e 0428 283c 96d5 193e
00000350: 64dd 15be bc63 dabd 8c14 b73e c0aa d5bc
00000360: 992d 3b3e af2b a93e 4882 cf3e decb 8bbe
00000370: c0f8 703e 0ba1 83be 8966 853e 35db 0a3e
00000380: a1ba 683e 29ae a43e 47a2 453e 3a5a 853e
00000390: bbdf f8bc 1388 1fbd 6ff4 9a3e 83dd 68be
000003a0: d3f0 583e f96f 913e 81c4 cdbe cbfb bfbe
000003b0: a902 4cbe a815 cc3d 52eb 7a3e e2d2 533d
000003c0: 53f3 0cbc 68d7 3abd 0348 2c3e fb34 243d
000003d0: 6522 843d e77f 5c3d 641c e33d 1a7d 8d3e
000003e0: 21cc cd3d 8b1e a63e a92a 983e 7508 993e
000003f0: 98d8 a43e 10fc da3e 35a2 16bd db7b 9d3e
0.036247324 0.5733699 0.013026622 -0.35554036 0.24163637 -0.28980523 0.33876592 0.08553692
0.31311858 -0.46289158 0.12388806 0.26896253 0.2399396 0.33763787 0.1766878 -0.41747496
-0.1093802 -0.10012294 0.034776762 0.2376716 -0.3297887 0.42655748 0.26716495 -0.21353404
0.19243789 0.12628421 0.12888846 0.18849733 0.06981882 0.26708397 0.19062059 0.21122739
0.24542727 0.2584478 0.1720689 -0.10851303 0.2667103 -0.35522985 -0.11387513 0.22481197
0.14552884 0.108748555 0.030969456 -0.099006735 0.11456496 0.2373434 0.2597363 -0.49114236
-0.3781746 0.29132834 0.16573621 0.20633541 0.09151409 0.27071202 -0.36723536 0.10857706
0.16873875 0.11417469 0.33073178 0.31188616 0.40196595 0.25748911 0.21339567 0.27330413
0.0816144 0.24017318 0.20616968 0.28533408 -0.08148776 0.14590019 -0.34118682 0.06938706
0.26910663 0.40991887 0.18995014 0.19401075 0.2477667 0.26731136 0.057938516 0.00316678
0.19865547 0.2580036 -0.015075418 0.1872929 0.22172345 -0.39865747 0.17178644 0.37551486
-0.3301026 0.21041521 0.16074762 0.27126294 0.27075875 0.16570103 0.44027385 0.06448052
0.08509095 0.34854946 0.07511361 -0.043337833 0.083662674 0.24959624 0.22731194 0.034094635
0.08715472 0.1907539 0.28838685 -0.06974897 0.10408516 -0.25225446 0.18902528 0.018227438
-0.15021974 0.28248358 0.20183067 0.25669146 0.271082 0.17203926 -0.08778894 0.23537199
0.051350556 0.072481886 0.4904856 0.21301463 -0.26557508 -0.27955022 0.21273614 0.17147183
-0.045360453 0.43754798 0.03248947 -0.05629296 -0.04759375 -0.29740673 0.35323912 0.31709075
0.3171612 -0.24988456 0.11678293 0.2556663 0.22246599 0.037439164 0.32186317 0.4315392
0.050293915 0.26701677 -0.26363158 0.32525536 -0.26928407 0.14632568 0.26320457 0.18740271
-0.3038502 -0.1885436 0.33038574 -0.21275383 -0.11867794 0.21292613 0.35113645 0.09728081
0.36059994 -0.041894007 -0.07837185 0.2853272 0.3035663 -0.31560636 -0.37455612 0.21496907
-0.019513471 0.26870885 -0.20211275 0.22227123 -0.19637114 0.42902806 -0.5101436 0.13314863
-0.41828924 0.07321745 0.17756155 0.27702928 0.2905485 -0.24011825 0.22077724 0.24692637
0.17284255 0.42007795 0.0020450542 0.44550848 -0.33425385 0.22190636 -0.306866 0.41274744
0.32278964 0.29091725 -0.22009759 0.037744004 0.059215803 0.16242911 0.14684755 0.19363295
0.06686079 0.026488664 0.296839 0.2570834 -0.1503504 0.24088031 0.26393867 0.019118728
0.5262315 0.426648 0.010263447 0.15022883 -0.14635235 -0.10663554 0.35757864 -0.026082397
0.18279113 0.3304114 0.40529084 -0.27303976 0.2353239 -0.25708804 0.2605479 0.13560183
0.22727443 0.32164124 0.19300185 0.260454 -0.03038012 -0.03894813 0.30264613 -0.2274075
0.21185617 0.2840574 -0.40188983 -0.3749679 -0.1992289 0.09965068 0.2450383 0.051714785
-0.008602935 -0.045615584 0.16824345 0.04008959 0.06451873 0.053832915 0.110893995 0.27634507
0.100487 0.32445177 0.29720047 0.29889265 0.32196498 0.42770433 -0.036775786 0.30758557

criticA.model.2.weight f4 [1, 256]
00000000: 437d 2cbf 14ed 42bf c07f 543f 5473 b63e
00000010: ee9e acbf 45a9 ca3b 894f b2bf 23db b9bf
00000020: 927b 9cbe f65e b83f a461 d0bf 22c4 b5bf
00000030: aca1 aabf ae6d 9fbf 879b a5bf d788 d13e
00000040: 46da d13f 31d1 353f bb55 23bf c919 23bf
00000050: d998 cf3f 7c74 6740 b025 a9bf 69a3 2a3f
00000060: 360b 72bf e37d 3d40 6c15 2740 9e96 11bf
00000070: 1555 cfbf d764 b5bf 1dff ccbf 5532 2cbf
00000080: 4e26 afbf 14c9 c1bf 5724 c1bf 796b d83e
00000090: 6f53 b2bf 6c81 053f 1660 4240 c2d9 b8be
000000a0: 183f d9bf 011a e0be e40a 1440 0bb9 92bf
000000b0: 6750 97bf bf66 afbf 0d33 c43f dc45 c93e
000000c0: ec35 c33e 73e3 a5bf 7099 c7bf 3f48 c5bf
000000d0: b6ac 8fbf e9a7 a7bf 5668 0d3f 52e7 d2bf
000000e0: b214 99bf 4d6a 3040 0c44 9fbf c2e3 a33f
000000f0: dceb 3340 0ac8 adbf 254a b1bf 604e cebf
00000100: b18f c1bf c39a 4a3f dd3c acbf 1681 c6bf
00000110: 958c ccbf c7e9 b8bf 94f2 463e e2c5 cabe
00000120: ada1 aebf 19ec 30bf 9187 afbf a89a a3bf
00000130: 99b4 2340 2fdb a2bf b1cc ea3f d81b 3c3f
00000140: faab 9bbf db8f b1bf 3d51 153f 187d ebbe
00000150: 4ef1 3cbe 799f e63e c9b8 c4be 7f29 9cbe
00000160: 0366 c33e f1ba 9dbf c2ac b4bf 1d1f 9abf
00000170: 52ab a0bf c5f0 cbbf b059 4e40 36de a4bf
00000180: 8043 d1bf 0920 793f dfc9 73bf 2144 0a3f
00000190: 961a a9bf c891 d5bf c265 ac3f 43f6 1f3f
000001a0: 1f63 dabf f4a2 cfbf 7548 a2bf d8cf 2040
000001b0: 27c3 59bf ce86 be3e 33af cdbe 8759 b43f
000001c0: af15 703e 6efe a5bf 9fb1 1840 ad32 79bf
000001d0: 57fd b5be 49df 6cbe c39f 0b3f f545 bebf
000001e0: 467e 20bf f27a 453f 2167 9ebf e903 abbf
000001f0: 900a 8bbe 6274 8ebf 2a7b 76bf 8114 92bf
00000200: ff2f b53e 3b56 bbbf 3c8a 7e3f bc4e 303f
00000210: fa05 1640 e0b6 ef3d 8878 87bf d0d0 7fbe
00000220: cc0e 4b40 389a bd3e b3c4 d0bf e8b9 8abf
00000230: b941 b6be f189 d9bf 5eeb 92be 5499 e0be
00000240: bc03 5240 9501 3e40 c39c af3f 946a be3f
00000250: 4a90 bf3d db0d a53f 846c abbf 1b4f b8bf
00000260: 60a5 e83d 627d 503f 728a 6ebe cadb b53e
00000270: b7e1 0a3f 45fc 2440 34d4 99bf 1a44 92bf
00000280: f789 c6bf e8b6 183f 6aab 093f f006 abbf
00000290: 557f 99bf 1991 523e 7bba f33e 087a b9bf
000002a0: c922 0c3f 659b b0bf a5ef 7a3e bf4e c2bf
000002b0: 8154 a43e 7615 abbf 75f4 713f 09f6 aabf
000002c0: de33 0c3f bf91 bfbf 916b 833f ab03 bcbf
000002d0: dea8 b0bf dabf 603e 8bed 56bf f3a4 abbf
000002e0: 0a42 363f 0ddf 85bf dd6a 0e40 3dcf f9bf
000002f0: 8451 ac3e 7d7b 87bf 13df 033e 354a cf3f
00000300: 0f65 aebf 9fb9 99be 1c4e 9e3f 6d34 8abf
00000310: 7c0f e3bf 458f 79bf a09e dabf 9de5 b8bf
00000320: 87f8 3b40 ab96 a5bf 699c 96bf f537 c5bf
00000330: 9a8c c8be 88f2 b5bf 88cb 4cbf 4ac3 f03e
00000340: 6318 5540 e88b 5d40 66c4 9bbe 0fa1 bfbf
00000350: 6084 f23e 904d 00c0 f273 81be b5d1 163f
00000360: 2d4e 57bf b9c2 e8be a00c a4bf f284 cbbf
00000370: b6df b4bf 41e9 a53c 3a60 3340 fa8a dabf
00000380: 37a5 c9bf 0b7f a1bf 9bd9 a2bf 4f3d 0bbf
00000390: b030 9c3f 8817 0a3f 069b 54bf 9168 b43e
000003a0: c2ff 83bf 4197 4dbf 5ad0 b33f f3e0 cb3e
000003b0: d1b9 bc3e 03a3 75bf a5f1 b0bf a2be 80bf
000003c0: d612 213f eea4 403f 94cc edbf 7ab1 ed3f
000003d0: 2c3a f1be e618 cfbe f720 c6bf d654 b1bf
000003e0: c667 b7bf c547 97be 97d5 93bf 2601 a8be
000003f0: d46d a0bf 3984 3840 2582 b1bf 975a 8cbe
-0.67378634 -0.76143 0.8300743 0.35634863 -1.3486001 0.0061847293 -1.3930522 -1.452
-0.30563027 1.440398 -1.6279798 -1.420048 -1.3330588 -1.2455347 -1.2938088 0.40924713
1.6394737 0.71022326 -0.6380269 -0.6371122 1.621852 3.6164846 -1.3214626 0.66655594
-0.94548357 2.9608085 2.6106825 -0.5687045 -1.619784 -1.4171399 -1.6015354 -0.672643
-1.3683565 -1.5139489 -1.5089215 0.42269495 -1.3931712 0.5215061 3.0371146 -0.36103636
-1.697238 -0.4376984 2.3131647 -1.1462721 -1.1821412 -1.3703231 1.532808 0.3931111
0.38127077 -1.2960037 -1.55937 -1.5412673 -1.1224582 -1.3098117 0.5523733 -1.6476843
-1.1959441 2.756488 -1.2442641 1.2803881 2.8112707 -1.3576672 -1.3850752 -1.6117668
-1.5121976 0.791424 -1.3456074 -1.5508144 -1.5980402 -1.4446343 0.19428474 -0.39604098
-1.364309 -0.69110256 -1.3713247 -1.2781572 2.5578978 -1.272314 1.8343717 0.73479986
-1.2161858 -1.3872026 0.58327085 -0.45993876 -0.18451425 0.45043543 -0.3842223 -0.3050041
0.38163766 -1.2322675 -1.4115222 -1.2040745 -1.2552283 -1.5932852 3.224224 -1.2880313
-1.6348724 0.97314507 -0.95229906 0.54010206 -1.3211238 -1.6685114 1.3468554 0.6248514
-1.7061499 -1.6221604 -1.2678362 2.5126858 -0.85063404 0.37212223 -0.4017273 1.4089822
0.23445772 -1.2968271 2.3858411 -0.9734295 -0.35544845 -0.23132052 0.5454065 -1.4865099
-0.6269268 0.77140725 -1.2375222 -1.3360568 -0.27156496 -1.1129267 -0.96281683 -1.1412507
0.3538818 -1.463569 0.9942968 0.6887014 2.3441148 0.117048025 -1.0583658 -0.24982
3.1727781 0.37031722 -1.6310028 -1.0837984 -0.35597017 -1.6995221 -0.28695196 -0.4386698
3.281478 2.9688466 1.3719715 1.4876275 0.09353693 1.2894853 -1.3392491 -1.4399141
0.11359668 0.8144132 -0.23295 0.35519248 0.54250664 2.5778973 -1.2017884 -1.1427033
-1.5510854 0.5965409 0.5377718 -1.3361492 -1.1991984 0.20563163 0.4760321 -1.4490366
0.5474058 -1.3797423 0.2450548 -1.5180281 0.3209572 -1.3365924 0.94513637 -1.3356334
0.54766643 -1.4966353 1.0267202 -1.4688619 -1.3801534 0.21948186 -0.8395621 -1.3409714
0.7119452 -1.0458695 2.2252724 -1.9516369 0.3365594 -1.0584561 0.12878065 1.6194521
-1.3624591 -0.3002443 1.2367587 -1.0797249 -1.77391 -0.97484237 -1.7079659 -1.4445072
2.937044 -1.2936605 -1.1766483 -1.5407702 -0.3916977 -1.421464 -0.79998064 0.47023994
3.3296134 3.4616642 -0.30423278 -1.4971026 0.4736662 -2.004734 -0.25283772 0.5891374
-0.8410366 -0.45461062 -1.2816353 -1.5899947 -1.4130771 0.020252826 2.8027482 -1.7073662
-1.5753545 -1.2616895 -1.2722658 -0.54390424 1.2202358 0.53942156 -0.83049047 0.35236028
-1.0312426 -0.8030892 1.4047959 0.3982006 0.36860517 -0.9595186 -1.3823744 -1.0058177
0.62919366 0.7525166 -1.8578057 1.8569787 -0.47114694 -0.40448684 -1.547881 -1.3854015
-1.4328544 -0.29546943 -1.1549557 -0.32813376 -1.2533517 2.8830702 -1.3867842 -0.27412865

criticB.model.0.weight f4 [256, 28]
00000000: 57a0 6fbf 9ae1 45c0 4d76 f43e da7a 8d3e
00000010: 3cd9 be3d 5da2 e6bd 3abf c1bd 4020 a3bc
00000020: 8ed1 20bd 540b 02bf 8817 17be fd8e d1be
00000030: 6a21 2cbd d895 60bb 6b0f 5dbe e006 8fba
00000040: 0352 88bc 11d4 b5bd 900f 303c c05c 1cbd
00000050: cdab fdbd 684c 9abd c62e b0bd 87a3 7c3e
00000060: 4cf4 3fbc 848d 2e3c 30aa d4bc 6aec eb3c
00000070: 8c3e 50bf 7ab8 54c0 0c80 8e3e 0dc0 653f
00000080: 7a6d f8bd 9816 46be ebb2 a53d 4bae e3bd
00000090: 7e29 92be 0055 2ebf e876 92bd 8b06 e3be
000000a0: a005 cebc 838b 1b3d 77a3 e03d 27a7 a63b
000000b0: 6c65 5e3d 4e43 703d 5050 dd3d 5450 bd3c
000000c0: 1b62 633d 5b90 de3d 45b1 bdbd 9803 8ebc
000000d0: ceb5 6abc 1aeb 0fbc 4327 1c3d 5ee3 0fbc
000000e0: 4ac3 3abf 1bae 3ac0 14f2 823e 6203 563e
000000f0: 3a40 523d 0af5 37bd b086 22bd 13d3 59bb
00000100: 3b59 bcbd b687 4abf aa1e d6bd 351b a7be
00000110: b0e2 90bd adca 35bd 171c 633d 25f0 483b
00000120: 2154 e63c 7c4f 273e 4fab aa3b f406 9a3d
00000130: 7a07 19be ebea 313d 3ac7 99bc 628f 143e
00000140: 426d a13d 73ed 21bd d93a 5c3d bc2c 32bc
00000150: 6b82 073f 1ec2 4b3f 15d2 893e 93ad 69bf
00000160: e470 293f f36d b63d 0765 2c3f c094 f63d
00000170: 9333 0cbd 505e 83be 3b29 24bd 1010 edbe
00000180: 0df6 7b3d bc07 8b3d 37b5 88be c600 59be
00000190: f3fb 6cbe 831a 83be 33ae 78be 0a5c 59be
000001a0: 39b9 3cbe fee4 90be d144 16bc 7c1f f93e
000001b0: a553 f53c 6ad1 fc3d d8b8 ab3d 47e5 873d
000001c0: 77f0 483f 93f1 d4bd 673a d13e fc43 e1bc
000001d0: 4054 e23e 99db b33d 0ebd edbd 76c6 8bbd
000001e0: e807 13bd bebe 1bbe fd40 95bd 9997 45be
000001f0: c5b9 c5bc 18bf b5bd 0574 8e3b 280f 943d
00000200: aab1 8d3d 398b 8c3d 8df0 b53c b545 d63d
00000210: c812 833d ddc8 0f3d a651 263e 2e8e a83e
00000220: 1548 dabd 5726 fe3d 4b5a 16bd 6a38 3d3d
00000230: 12b6 e5bf b1c9 14c0 bfd3 593f cc02 62bf
00000240: f3b0 78be d389 2d3e 0a33 1abe 112d babd
00000250: a285 84be 43b7 a0bf 2424 dabd 7c95 d3bd
00000260: 953a 093d 8c34 6bbe 71d2 86be 9560 91be
00000270: 4117 bfbe c24f 90be aa1b f3be e5e8 b0be
00000280: 65b0 70be ca10 e0be b5b8 96be 0603 93bc
00000290: 8125 8e3d b3e6 f23c e292 b83d d596 6e3d
000002a0: 231e 85bf 15a7 55c0 7a37 f13e 1e86 bd3e
000002b0: cfa0 043d 0021 d2bd 761d 45bd 7abd 8abd
000002c0: 1d83 c8bd 3cb6 23bf b4c7 e5bd ed28 dabe
000002d0: 1e8a 5ebd 1265 a8bc eeda 9dbd a24c f3bc
000002e0: 1928 21bd e0d6 b5bd b7ef cebd 4b3b 3f3d
000002f0: 379d 53bd 9122 b73d ba9a 47be b63d 283e
00000300: 67b0 88bc 28cc 1fbd e7b1 f03c 4361 7a3d
00000310: 2ca0 f9be 3179 23c0 4ebd 483f 9dd0 8ebf
00000320: 0d50 43bd ea6e 9cbc db62 58bb 5e24 e5bc
00000330: 3d51 99bd ec45 9ebe 6874 6abd d80d 9f3c
00000340: 687d 253e 92bb 0f3e c8f0 27be 8314 acbd
00000350: 2250 2cbe 72ae ccbd 3a2c 56be 6334 72be
00000360: 611d eabd 85ae 34be 5893 c5bd ecf1 c03e
00000370: b6b2 213c 3957 29bc fb7b 96bc 6a01 00bd
00000380: 11b4 12bd 85f2 d43e 3d20 f93e 8b1c 1abf
00000390: 9193 d0be 862e 9b3d 8717 e1be 6c09 4dbc
000003a0: 8ef5 893e 4998 093f a4ed 9c3d de46 dd3e
000003b0: f171 113e fa0b 203e f702 8ebe 4f0e 61be
000003c0: 71fe 84be 62e0 2ebe 3291 42be 8930 65be
000003d0: 96ba 94be a3fe 67be a669 393c b799 4b3e
000003e0: b247 b73c 15c6 86bd 0d40 993d 4f86 5abd
000003f0: 73e4 66bf 6fd0 2fc0 abbd 523e 10ab d7bc
-0.93604034 -3.0918946 0.47746506 0.2763279 0.09318778 -0.11261437 -0.09460302 -0.019912839
-0.039262347 -0.50798535 -0.1475507 -0.40929404 -0.042024054 -0.0034269001 -0.21587913 -0.0010912083
-0.016640669 -0.08878339 0.010745898 -0.03817439 -0.12386284 -0.075341046 -0.08602671 0.24671756
-0.01171596 0.010653857 -0.025960058 0.028799254 -0.8134544 -3.3237596 0.27832067 0.8974617
-0.12130256 -0.19344556 0.080907665 -0.11117228 -0.2854728 -0.6809845 -0.07151586 -0.4434093
-0.025149167 0.037974846 0.109686784 0.005085844 0.054295942 0.058657937 0.10806334 0.023109592
0.055513483 0.10867377 -0.09262327 -0.017335698 -0.014325572 -0.00878408 0.03812338 -0.008782236
-0.7295424 -2.9168766 0.25575316 0.20899728 0.051330782 -0.04491142 -0.03967923 -0.0033237382
-0.09196707 -0.7911333 -0.104550675 -0.32637945 -0.07074487 -0.04438274 0.05544671 0.0030660715
0.028116288 0.16338915 0.00520841 0.075208575 -0.14944258 0.043436926 -0.018771756 0.14507821
0.078821674 -0.03953309 0.05376706 -0.010874923 0.5293338 0.79593074 0.26918092 -0.9128048
0.6618788 0.0890769 0.67341655 0.120400906 -0.034228873 -0.25657892 -0.040078383 -0.46301317
0.06151395 0.067885846 -0.26700756 -0.21191701 -0.23142986 -0.25606164 -0.24285202 -0.21226516
-0.18430032 -0.28299707 -0.009171681 0.48656833 0.029947111 0.1234463 0.083848655 0.06635528
0.7849192 -0.10397639 0.4086487 -0.027498238 0.44204903 0.08782119 -0.11608325 -0.06824963
-0.03589621 -0.15209481 -0.07287786 -0.19296111 -0.024136433 -0.08874339 0.0043473267 0.07229453
0.06918652 0.06862492 0.02220943 0.10462514 0.064000666 0.035103668 0.16242084 0.32920974
-0.1065828 0.124096565 -0.036707204 0.04619638 -1.7946188 -2.3248103 0.85088724 -0.8828552
-0.24286251 0.16947107 -0.15058532 -0.09090627 -0.25883204 -1.2555927 -0.106514245 -0.10331246
0.033503134 -0.22969264 -0.2633243 -0.28394 -0.3732243 -0.2818585 -0.47482044 -0.34552684
-0.23504789 -0.4376281 -0.29437795 -0.017945778 0.06940747 0.029651022 0.09012391 0.058249313
-1.0399822 -3.3383229 0.47112638 0.37016386 0.03237992 -0.102602005 -0.0481238 -0.06774421
-0.09790633 -0.6394994 -0.11219731 -0.4260935 -0.054330938 -0.020556007 -0.07707773 -0.029699627
-0.03934488 -0.08878875 -0.10104316 0.046687406 -0.051663604 0.0894214 -0.19492617 0.16429791
-0.016685678 -0.039013058 0.029381705 0.061127912 -0.48755014 -2.554272 0.78413856 -1.1157414
-0.047683764 -0.019095857 -0.0033017907 -0.027971443 -0.07486198 -0.3091272 -0.05723992 0.01941578
0.1616112 0.14036396 -0.16400445 -0.0840235 -0.16827443 -0.0999421 -0.20915309 -0.23652796
-0.11431385 -0.17644699 -0.09647244 0.37684572 0.009869268 -0.010335737 -0.018369665 -0.03125135
-0.035816256 0.41591278 0.48657408 -0.60199803 -0.40737584 0.07577233 -0.43963262 -0.012514453
0.26945156 0.53747994 0.07662514 0.4321813 0.14203621 0.15629569 -0.27736637 -0.21978115
-0.25975373 -0.17077783 -0.190007 -0.22381796 -0.29048604 -0.2265573 0.011316692 0.19882856
0.022373054 -0.0658075 0.0748292 -0.053350743 -0.90192336 -2.7470968 0.20580165 -0.026326686

criticB.model.0.bias f4 [256]
00000000: b6ed 4c3e d6b2 0c3e 34cc 333e 69e7 c03e
00000010: e941 493c a464 843e 5b16 623e f49d a93e
00000020: 4325 873e 79ae 283e 83a1 4ebe a580 4d3e
00000030: 5cb2 763e 9a34 aa3e 0eeb a3be bedc 6e3e
00000040: 85c6 bf3d 2fb1 a03d 7589 89be edc4 1e3e
00000050: 32e3 be3d c3aa 8c3e feef 963d b239 dd3d
00000060: b6a1 553d 6031 ac3e effa ae3a 6050 41be
00000070: b28f 893e 74f0 243d a768 603e e984 f13e
00000080: 5d75 013f 0977 973e 1377 853e b4c1 103e
00000090: 136d 653e f017 aa3e 94a0 2ebc 7811 2b3d
000000a0: 3b18 8e3e ed38 633e 3baf e63d d343 2b3e
000000b0: 4f9d 1d3e 3741 9a3d b7c1 babe f07e 5a3e
000000c0: 8dda a63d bb7e 0f3e df30 06bf 1dba 8d3d
000000d0: dc3d 2abe c847 5bbd ad5a 953e 8b37 a13c
000000e0: d617 3d3c 76ec 733e c219 683e 53f9 003f
000000f0: e0ac 0ebd 7be8 95be a5a1 d83d f20c 763e
00000100: 2d7a 9d3d acc7 123e 06d6 06bd dc85 873e
00000110: 6117 2e3e e1dd f73d 7262 053e 32b3 3e3e
00000120: 3a78 a83d fc0c aa3e 7c68 363e 7bbc a83e
00000130: f2a6 f63b 75dd 703e 435e a43e 258e 133e
00000140: 8aac 6b3e 6b0a 1ebe 7319 97be a046 c4bc
00000150: 1389 d53e e9e6 013e 55b0 0f3e 7a28 983e
00000160: 7d73 123e 000b 643e 2482 9b3e 71f8 783e
00000170: deac 813e cbab fa3d 1408 453e e79e bbbe
00000180: 52d0 da3e 5f6a a33d ecb2 6e3e bc50 b53e
00000190: d408 283c 6b1e 963d 1576 2c3e 19e1 793e
000001a0: 9826 f9bd e924 bf3d 21d3 9bbd 27d1 883d
000001b0: 7267 1dbd e030 653e fe45 963e 2302 663e
000001c0: b907 883e e24a 843d 5f11 393e 9907 903e
000001d0: fa3b 0abe 1836 5fbd 191a 3e3d 5ba2 fd3e
000001e0: ec52 603e ff44 1c3e af51 013e 284c ab3b
000001f0: f36f fb3e 707b 263e 8532 abbd f5a0 7b3e
00000200: 2758 583e 2ef2 4d39 be72 2ebe 120b 573e
00000210: c405 053e 9dea f43d 9d75 4a3e 9902 cd3d
00000220: ac1f 0d3f cad3 49be c5bd bdbe a414 6c3e
00000230: 0c91 b23d 5e03 84be d9e4 5d3e 1522 d0be
00000240: 4830 073f 52d6 3f3d 653a 373e 6c69 28be
00000250: 93bd 99be 99b9 663e 7311 313e 8825 e3ba
00000260: 1b95 e93d f4e8 4bbe e6c0 963d a30c 423e
00000270: ea89 ef3d ca91 703e 3d7f 7c3e 36e5 4f3e
00000280: b877 c93d 8d90 db3d 93d0 603e b8cb f3bd
00000290: 7261 703e cd5a d23c ca88 2f3e dfb0 873e
000002a0: 1dab c3be d6d9 933e 908c 133e 5c07 dd3d
000002b0: 076a 0e3e d096 5a3e 6112 063d 836a b2bd
000002c0: 91af 893e 4a46 4e3e 4fbd b7be 2ffb e83d
000002d0: ad23 c33e 878b 473e ef21 953e b790 203e
000002e0: fc3c 763e a802 093e 45e3 14bb 88ab 343e
000002f0: db40 483c 7f9f f83d 8b1b 073e 4a02 8abe
00000300: 5612 793e 16c6 023d f701 f0bc 622a 853e
00000310: 18d0 583e 5800 9cbe 63b6 cdbb f212 ccbe
00000320: 8d86 ec3d 0c40 253e 0e3e 45be 8485 943e
00000330: fd78 4d3e 7cea c6be 4667 7b3e 32cf 503e
00000340: 0c95 913e 3fc9 3f3e 1dde 94be 7707 7b3e
00000350: f9b4 cd3d bb59 753e 488f bf3e 65e7 7b3e
00000360: da9e 5e3e 111f 093e a7f7 a03e deb7 673e
00000370: 27c5 d53d cfbc 33be dae8 d13d 3f67 85bc
00000380: 4189 0bbd 0401 1a3e 0928 0a3e fe1d df3c
00000390: db98 c43e bf7a 773e 317a 8a3e c8a3 163e
000003a0: d37c a23c 2a64 2bbd 3962 a13e 2288 5a3e
000003b0: 9814 4ebe 580f b13e 8ff4 10bf 2243 ac3e
000003c0: 111f a03e 9d1d 193d 3b55 73be a10a 57be
000003d0: ed33 293e b61c 423e 24e8 433e 0871 1bbe
000003e0: 74cc b63e 62e9 983e ac2f 823e 91fe 163e
000003f0: e5cf 6e3e 03ea 433e d68f 71be 910c ab3e
0.20012555 0.13740095 0.17558366 0.37676552 0.012283781 0.25858033 0.2207884 0.3312832
0.26395616 0.16472806 -0.201788 0.20068605 0.24091476 0.33243257 -0.3201527 0.23326394
0.093640365 0.07846295 -0.26862684 0.15504809 0.09320678 0.2747403 0.073699936 0.1080202
0.052156173 0.3363142 0.001334993 -0.18878317 0.26867443 0.040268376 0.21914922 0.47171715
0.5056971 0.29583004 0.2606741 0.14136392 0.2240489 0.33221388 -0.010658402 0.041764706
0.2775286 0.22189684 0.11263891 0.16725092 0.1539204 0.0753197 -0.36475918 0.21337485
0.08147154 0.14013188 -0.5241832 0.06920264 -0.1662516 -0.053535253 0.29170743 0.019679805
0.011541327 0.23820671 0.22666076 0.5038044 -0.034832835 -0.2927893 0.10577706 0.24028376
0.07689319 0.14333981 -0.032918952 0.26469314 0.17001106 0.12102867 0.13025835 0.18623045
0.082260564 0.3321303 0.17813295 0.329563 0.0075272257 0.23521979 0.32103166 0.14409693
0.23015037 -0.15433662 -0.29511604 -0.023959458 0.41706142 0.12685741 0.14032109 0.2971838
0.14301868 0.22269821 0.30372727 0.24313523 0.253272 0.12239798 0.19241363 -0.3664467
0.4273706 0.07979273 0.23310441 0.35413158 0.010256011 0.073300205 0.1684192 0.24402274
-0.12165564 0.09333212 -0.07608629 0.06680518 -0.03842873 0.22381926 0.29350275 0.22461753
0.26568392 0.06459595 0.18073033 0.28130797 -0.13499442 -0.054494947 0.046411607 0.4953793
0.21906632 0.15260695 0.12628816 0.0052275844 0.49108848 0.16258025 -0.08359245 0.24573119
0.21127377 0.00019640542 -0.17035958 0.21000317 0.1299048 0.119588114 0.19771428 0.10010261
0.5512645 -0.19709697 -0.37058845 0.23054749 0.08719072 -0.2578382 0.2166933 -0.40651003
0.52808046 0.04683525 0.1789337 -0.16446465 -0.30027446 0.22531737 0.17291813 -0.0017329911
0.11405393 -0.19913083 0.07361011 0.18950133 0.11696227 0.23493114 0.24657913 0.20302281
0.09837288 0.1072093 0.21954565 -0.11904091 0.23474672 0.025678063 0.17142025 0.2650213
-0.38216487 0.28877133 0.14409089 0.10792419 0.13907634 0.21346593 0.03273237 -0.08711722
0.2689176 0.20144 -0.35886618 0.113760345 0.38113156 0.19486819 0.29127452 0.15680204
0.24046701 0.1337992 -0.002271847 0.17643559 0.012222494 0.121397965 0.131941 -0.2695487
0.24323401 0.03192719 -0.029297812 0.26008898 0.21173131 -0.30469012 -0.0062778457 -0.39858204
0.11549101 0.16137713 -0.19261953 0.29008114 0.20065685 -0.38850772 0.24551114 0.20391539
0.28434026 0.18729113 -0.2907571 0.24514566 0.100442834 0.2396001 0.37414002 0.24599989
0.21740285 0.13390757 0.31438944 0.22628734 0.104379945 -0.17552494 0.10249491 -0.016284583
-0.034066442 0.1503945 0.13491835 0.027235981 0.3839787 0.24167918 0.2704635 0.14710915
0.019834911 -0.04184357 0.3152025 0.21340993 -0.20125043 0.3458202 -0.56623167 0.33644968
0.31273702 0.037381757 -0.23762982 -0.21000148 0.16523714 0.18956265 0.19131523 -0.15179837
0.3570286 0.29865557 0.25426996 0.14745547 0.23321493 0.19132237 -0.23590025 0.33408025
