models/dqn/torch/CartPole-v1/seed_1_FriMar1519_22_272024/final_train_model.pth (torch, 143885 bytes, 12 tensors)

representation.model.0.weight f4 [128, 4]
0	0x3d1e8a96	0.038706385
1	0xbd3b2535	-0.04568978
2	0x3e2cfdba	0.16893664
3	0xbd38c5cd	-0.045110513
4	0x3d753e66	0.05987396
5	0x3cb2d500	0.021830082
6	0x3e8f0aa4	0.27937806
7	0x3d439f1e	0.047759168
8	0xbd38e810	-0.045143187
9	0xbd34395e	-0.044000022
10	0x3f2128b0	0.6295271
11	0xbde321cb	-0.1109043
12	0xbcc52f14	-0.0240703
13	0x3e5296a5	0.20565279
14	0x3e2d3714	0.16915542
15	0x3e377332	0.17915037
16	0x3ded4cc8	0.115869105
17	0xbe895f3b	-0.26830468
18	0xbf1dcf75	-0.6164468
19	0xbe2097af	-0.15682863
20	0xbdabebeb	-0.08394607
21	0x3e110438	0.14161766
22	0x3c825043	0.015907412
23	0xbd0c323f	-0.034227606
24	0xbe412796	-0.18862757
25	0x3e5b922d	0.2144248
26	0x3e88d795	0.26726976
27	0x3db37754	0.087629944
28	0xbd6e3b9e	-0.058162324
29	0x3e242756	0.1603063
30	0xbeb3b433	-0.3509842
31	0xbd16806f	-0.036743578
32	0xbda8f196	-0.08249204
33	0x3d96ecd1	0.07369388
34	0x3e9652c9	0.29360035
35	0xbce6c66b	-0.028170785
36	0xbdc90c32	-0.09816779
37	0x3d8b895f	0.06813311
38	0xbea9a526	-0.3313381
39	0xbd9ba573	-0.07599916
40	0x3d89a57a	0.06721015
41	0x3d5f6466	0.054539107
42	0x3ea43ba9	0.32076767
43	0x3d7204bf	0.059086557
44	0xbd996af9	-0.074911065
45	0x3d1d56b8	0.03841278
46	0xbe106e2a	-0.14104524
47	0x3d79fcb0	0.061031997
48	0xbe0f9ce1	-0.14024688
49	0xbddceb09	-0.10787017
50	0x3e2671a7	0.16254292
51	0xbca0dd6d	-0.019636834
52	0xbd81da10	-0.0634042
53	0x3c9b8fc0	0.018989444
54	0x3dfac516	0.122446224
55	0xbc73e458	-0.014885984
56	0xbd4db70a	-0.050223388
57	0x3d4c1660	0.049826026
58	0xbf01f047	-0.5075726
59	0xbdbf1a61	-0.09331203
60	0xbe27f418	-0.16401708
61	0xbebc83f3	-0.3681942
62	0xbe17ac14	-0.14811736
63	0xbe628d84	-0.22124296
64	0x3d2eeeb1	0.042708103
65	0xbdc93d19	-0.098261066
66	0xbf7e9920	-0.994524
67	0xbe50abbd	-0.20378013
68	0x3d9aa9ea	0.0755194
69	0xbce70e4b	-0.028205058
70	0xbfe8a5c4	-1.8175588
71	0xbe23f2ac	-0.1601054
72	0xbde70da2	-0.11281897
73	0x3dd95d8b	0.10613545
74	0x3ec9e3d8	0.39431643
75	0xbc194b1d	-0.009356287
76	0x3d707b7a	0.058711506
77	0x3d8ae148	0.0678125
78	0xbe52cfc7	-0.20587073
79	0x3cf4a50e	0.02986386
80	0xbd8a0077	-0.0673837
81	0x3ca03c6f	0.019560067
82	0x3e979cac	0.2961172
83	0x3d8780ef	0.06616389
84	0x3bc2404a	0.005928074
85	0x3cf24410	0.02957347
86	0x3fa47b86	1.2850196
87	0x3e438ffb	0.19097893
88	0xbdc10d87	-0.09426408
89	0x3e1bfd46	0.15233335
90	0xbdcc4b8c	-0.09975347
91	0xbd1ecfd7	-0.03877243
92	0xbcfc06f8	-0.030765042
93	0x3e242fe0	0.16033888
94	0xbcc58f9d	-0.024116332
95	0xbccea622	-0.025225703
96	0x3ce0f40f	0.027460126
97	0x3d4c2af4	0.04984565
98	0x3ebe4107	0.37158987
99	0x3d98ca36	0.07460444
100	0xbbfd155a	-0.0077234926
101	0x3cce14df	0.025156436
102	0x3fbef086	1.4917152
103	0x3e670f3e	0.22564408
104	0xbc1cfda6	-0.009581959
105	0xbc54ccc3	-0.012988272
106	0xbf4f230d	-0.8091286
107	0xbddad4f6	-0.1068515
108	0x3b38e461	0.0028212296
109	0xbb8b565b	-0.0042522377
110	0xbf40b4b8	-0.75275755
111	0xbde165a1	-0.11005712
112	0x3cfb3dd3	0.030669129
113	0x3dc41dd6	0.09576003
114	0x3e1f0954	0.15530902
115	0x3ddc5cb0	0.10759866
116	0x3df9f126	0.122041985
117	0xbdd867c6	-0.10566668
118	0xbff43c4b	-1.90809
119	0xbe92c0b7	-0.28662655
120	0x3ee778e2	0.45209414
121	0x3cd8effd	0.026481623
122	0xbf5ebb25	-0.8700431
123	0x3b57dd3b	0.003293826
124	0x3cfc68e7	0.03081174
125	0xbda8e24f	-0.0824629
126	0x3e99066b	0.2988771
127	0xbd982650	-0.074291825
128	0xbc23960d	-0.009984505
129	0xbd42d230	-0.04756373
130	0x3fbd84a2	1.4806101
131	0x3e105fb0	0.14099002
132	0xbd5caddd	-0.053876746
133	0xbe1cb758	-0.15304315
134	0xbf352124	-0.70753694
135	0xbe411791	-0.18856646
136	0xbe614936	-0.22000584
137	0xbe0f27ca	-0.13980022
138	0x3e9b98b1	0.30389932
139	0xbd792023	-0.060821664
140	0xbdc311d7	-0.09524887
141	0xbe454f53	-0.19268541
142	0x3e42d5d1	0.19026877
143	0xbd9475a7	-0.07249003
144	0xbd8514e1	-0.06498123
145	0x3c888e21	0.016669335
146	0x3e9a7645	0.30168357
147	0xbccd07a9	-0.025028067
148	0x3cba498a	0.022740144
149	0xbd866770	-0.06562698
150	0x3df4b1ef	0.11948001
151	0x3ccbb83d	0.024868125
152	0xbec9ed95	-0.39439073
153	0xbebfdb3d	-0.37471953
154	0xbfa37ddc	-1.2772784
155	0xbec61d0a	-0.3869403
156	0xbe33534e	-0.17512247
157	0x3e1c1fe3	0.15246539
158	0x3de78b58	0.113058746
159	0x3dc439b7	0.09581321
160	0x3ea9fd20	0.33200932
161	0xbdaa4b2e	-0.08315121
162	0xbfa856d4	-1.3151498
163	0xbe4ad4d5	-0.19807751
164	0xba755453	-0.00093585736
165	0xbd17be83	-0.03704692
166	0xbddf16e7	-0.1089304
167	0x3c8963ea	0.016771276
168	0xbe387c74	-0.18016225
169	0x3d8de629	0.06928665
170	0x3f7bce79	0.9836193
171	0x3e94d113	0.2906576
172	0x3e9d2c38	0.306978
173	0xbe282a03	-0.16422276
174	0xc0294f78	-2.6454754
175	0xbed56a60	-0.4168272
176	0xbe7c6acd	-0.24650116
177	0xbe1e4806	-0.15457162
178	0xbeba9862	-0.36444384
179	0xbe64bbf6	-0.22337326
180	0xbe6fa971	-0.2340448
181	0xbd426e81	-0.047468666
182	0x3f164fe0	0.5871563
183	0xbc9e4cf5	-0.019323805
184	0xbe60631c	-0.21912807
185	0x3e6d24f3	0.23158626
186	0x3edbf42d	0.4295973
187	0x3d8966e6	0.067090794
188	0xbd8102d7	-0.0629937
189	0x3d0fde80	0.035124302
190	0xbf6dfb2a	-0.9296137
191	0xbdb5bdff	-0.088741295
192	0xbf0cd917	-0.5501875
193	0xbefbb545	-0.49161735
194	0xbf193511	-0.598466
195	0xbed5a9fa	-0.41731244
196	0xbe9ad3fe	-0.30239862
197	0xbe76c24d	-0.24097557
198	0x3de76f1b	0.113004886
199	0xbe82853b	-0.25492272
200	0xbdb94ebf	-0.09048223
201	0x3cf44cc7	0.029821767
202	0x3e89be74	0.26903117
203	0x3cd5c0bb	0.026092878
204	0xbeedc58b	-0.46439776
205	0xbe37fa95	-0.17966683
206	0x3daf54df	0.0856111
207	0x3c9e6d1c	0.019339137
208	0xbc81f8c2	-0.015865687
209	0x3d7222b3	0.059115123
210	0x3f8341ac	1.0254416
211	0x3e78ff5a	0.24316159
212	0xbd4a9113	-0.04945476
213	0x3cc8b5d9	0.024500774
214	0x3fb7a52e	1.4347284
215	0x3d984ac3	0.07436135
216	0xbd659d5b	-0.05605827
217	0x3dca40aa	0.09875615
218	0x3e7c6b2f	0.24650262
219	0x3d1c6637	0.038183417
220	0xbe9b52a4	-0.30336487
221	0x3ccee3b4	0.025255062
222	0x3f9cb351	1.2242223
223	0xbdd7c7ba	-0.10536142
224	0xbf38a34c	-0.7212417
225	0xbf0a7fff	-0.54101557
226	0xbf9c8ad3	-1.2229866
227	0xbef99b2d	-0.48751202
228	0x3dddb3c4	0.10825303
229	0xbd751cf6	-0.059842072
230	0xbde0fcae	-0.10985695
231	0x3c309646	0.0107780155
232	0x3cceb7cf	0.025234131
233	0x3b008b50	0.0019614287
234	0x3fb0996b	1.379682
235	0x3e30218e	0.172003
236	0x3d901e04	0.07036975
237	0xbc988575	-0.018618325
238	0x3c586eb2	0.013209986
239	0xbc3e7428	-0.0116243735
240	0xbd951cfb	-0.07280918
241	0x3d5ed6c9	0.054404054
242	0x3e09d17a	0.13458815
243	0x3dbdfd00	0.092767715
244	0xbd4c0a7d	-0.04981469
245	0xbb0daf77	-0.0021619478
246	0xbcaff9f3	-0.02148149
247	0x3d59e83f	0.053200003
248	0x3c9f71b3	0.019463396
249	0xbcf9d9bd	-0.030499334
250	0xbf32e510	-0.6988077
251	0xbde6d0dd	-0.11270306
252	0xbed95c29	-0.42453125
253	0x3e2a9e17	0.16661869
254	0x3fd4cdb6	1.6625278
255	0x3ea80048	0.32812715

representation.model.0.bias f4 [128]
0	0xbd7216c1	-0.05910373
1	0x3e935f7c	0.28783786
2	0x3e83f5ad	0.25773373
3	0x3e9d9809	0.30780056
4	0x3e508d24	0.20366341
5	0x3e790cf1	0.24321343
6	0x3e879105	0.2647783
7	0x3e82dc80	0.25558853
8	0x3e6f6e74	0.23381978
9	0x3e7d06f9	0.24709691
10	0x3e8e196e	0.27753776
11	0x3e8eff42	0.2792912
12	0x3e5be980	0.21475792
13	0x3e817af5	0.2528912
14	0x3e883768	0.26604772
15	0xbeb56ae8	-0.35433125
16	0x3ec2238d	0.37917748
17	0xbebfdb21	-0.3747187
18	0x3e873a05	0.26411453
19	0x3e586a36	0.21134266
20	0x3e9698ac	0.29413354
21	0xbe9671bc	-0.29383647
22	0x3e833fed	0.2563471
23	0x3e5b00ac	0.21386975
24	0x3e8d151a	0.27555162
25	0xbe9026b5	-0.2815453
26	0x3e8c32ab	0.27382407
27	0x3e9101f1	0.28321794
28	0x3e8e4ff5	0.27795377
29	0xbeb9c58f	-0.36283538
30	0xbec48628	-0.38383603
31	0x3e7c4e6a	0.24639288
32	0xbe91f03e	-0.28503603
33	0x3e8d3e61	0.27586654
34	0xbeda02f6	-0.42580384
35	0x3e7de7d8	0.24795473
36	0x3e81224d	0.25221482
37	0x3e8c8d53	0.27451572
38	0x3e089994	0.13339835
39	0x3e88d35a	0.26723748
40	0xbec2ea9d	-0.3806962
41	0x3e9853e3	0.297515
42	0xbeba4cf8	-0.36386847
43	0xbf09077c	-0.53527045
44	0x3e75a051	0.23986937
45	0xbee247a6	-0.44195288
46	0x3e837747	0.2567694
47	0x3e95a7dd	0.29229632
48	0x3d9301a1	0.07178045
49	0x3e4410c0	0.19147015
50	0x3e8398e6	0.2570259
51	0x3e5dd7b4	0.21664315
52	0xbdd12e8f	-0.102139585
53	0xbe8bfd7f	-0.2734184
54	0x3e65c26d	0.22437449
55	0x3e1ee041	0.15515234
56	0xbe783115	-0.24237473
57	0x3e97fbba	0.2968424
58	0xbe99d576	-0.3004567
59	0x3e70234a	0.23450962
60	0x3e98b4af	0.2982535
61	0x3e8a7839	0.27044848
62	0x3e844219	0.25831679
63	0x3eee52e2	0.4654761
64	0x3e1ccd87	0.15312777
65	0x3e71308b	0.23553674
66	0x3e819b3a	0.2531374
67	0xbeb348d9	-0.35016516
68	0x3e7c4d1f	0.24638794
69	0xbea4d6ec	-0.32195222
70	0x3e6338ba	0.22189608
71	0xbeb2c224	-0.34913743
72	0x3e846c4c	0.25863874
73	0x3e8097ff	0.25115964
74	0x3e880ce0	0.26572323
75	0x3d9d6cab	0.076867424
76	0x3e406874	0.18789846
77	0x3e72f9f4	0.23728162
78	0x3e88e01d	0.26733485
79	0x3e8eb409	0.2787173
80	0x3f1ff7db	0.6248757
81	0xbe837d96	-0.25681752
82	0x3e766103	0.24060445
83	0x3e8c4e11	0.2740331
84	0x3e8f175d	0.27947512
85	0x3e8e1033	0.27746734
86	0xbeb26e15	-0.3484961
87	0x3e7ff28c	0.24994868
88	0x3e72a806	0.23696908
89	0x3e705729	0.23470749
90	0x3f0cec9d	0.55048543
91	0xbe95f4bc	-0.2928828
92	0xbea5b0ed	-0.32361546
93	0x3e5bbffd	0.21459956
94	0x3e6e0a95	0.23246224
95	0x3e9e176b	0.30877241
96	0xbec0ff17	-0.37694618
97	0xbf1346f3	-0.57530135
98	0xbe973d5c	-0.29539
99	0xbeaf5161	-0.34241775
100	0x3ea8485f	0.32867715
101	0xbf16fcf9	-0.58979756
102	0x3e8cbbd4	0.2748705
103	0xbeef1dba	-0.46702367
104	0x3e9b091f	0.30280396
105	0x3e8a5705	0.27019516
106	0xbe883d09	-0.26609066
107	0x3e515614	0.20442992
108	0xbdb78593	-0.08961024
109	0x3e6c20b9	0.23059358
110	0x3e547de2	0.20751145
111	0xbe8b2960	-0.27180004
112	0x3e80e1ec	0.25172365
113	0x3e7e1dc7	0.24816047
114	0x3e420610	0.18947625
115	0xbcdbc640	-0.026827931
116	0x3eb661c2	0.35621458
117	0xbecd67f3	-0.4011837
118	0x3e8bedb9	0.27329805
119	0x3e76880d	0.24075337
120	0x3e935857	0.28778335
121	0x3e8315c5	0.25602546
122	0x3e8217e1	0.25408843
123	0x3e94817c	0.2900504
124	0x3e6414ed	0.22273608
125	0x3e62c578	0.22145641
126	0x3e94ab3b	0.29036888
127	0x3e856601	0.26054385

target_representation.model.0.weight f4 [128, 4]
0	0x3d1e8a96	0.038706385
1	0xbd3b2535	-0.04568978
2	0x3e2cfdba	0.16893664
3	0xbd38c5cd	-0.045110513
4	0x3d7371ea	0.05943481
5	0x3ca9cc94	0.020727433
6	0x3e8d0ddb	0.27549633
7	0x3d40e88a	0.047096767
8	0xbd38b35b	-0.04509292
9	0xbd3497fb	-0.044090252
10	0x3f20a68a	0.6275412
11	0xbde36941	-0.1110406
12	0xbcca5aab	-0.024701437
13	0x3e511414	0.20417815
14	0x3e283504	0.16426474
15	0x3e368848	0.17825425
16	0x3dee3d89	0.11632831
17	0xbe897ba8	-0.26852155
18	0xbf1e2e8c	-0.61789775
19	0xbe1fcbc0	-0.15605068
20	0xbdac70f9	-0.08419985
21	0x3e1107df	0.14163159
22	0x3c34537b	0.011006231
23	0xbd0f6748	-0.035010606
24	0xbe419002	-0.18902591
25	0x3e5ade8f	0.21373962
26	0x3e865d9d	0.26243296
27	0x3db15a2d	0.08659778
28	0xbd6fa361	-0.05850542
29	0x3e244649	0.16042437
30	0xbeb5f0bb	-0.35535225
31	0xbd1b1be7	-0.037868407
32	0xbda99b39	-0.082815595
33	0x3d965a36	0.07341425
34	0x3e941082	0.28918844
35	0xbcece4ef	-0.028917758
36	0xbdc98849	-0.098404475
37	0x3d8aeeb6	0.06783812
38	0xbeab747f	-0.33487317
39	0xbd9d216f	-0.076723926
40	0x3d88723a	0.06662412
41	0x3d588cc0	0.052868605
42	0x3ea23509	0.31681088
43	0x3d6f99bb	0.05849622
44	0xbd9a1235	-0.07523004
45	0x3d1b57c9	0.037925515
46	0xbe14764c	-0.14498252
47	0x3d7788e7	0.060433295
48	0xbe0f6bbf	-0.14005946
49	0xbddaf760	-0.10691714
50	0x3e243ffb	0.16040032
51	0xbca4f5b2	-0.020136688
52	0xbd827a06	-0.063709304
53	0x3c993533	0.018702125
54	0x3df2d0b5	0.11856214
55	0xbc80b85f	-0.015712915
56	0xbd4eeb92	-0.050517626
57	0x3d4bf60f	0.049795207
58	0xbf03039e	-0.51177394
59	0xbdc06857	-0.09394901
60	0xbe26aa1b	-0.16275828
61	0xbebbbaf1	-0.36666062
62	0xbe11f26a	-0.1425263
63	0xbe5f9a87	-0.21836291
64	0x3d2e72b7	0.04258987
65	0xbdc88553	-0.097910546
66	0xbf7f2d15	-0.99678165
67	0xbe51087e	-0.20413396
68	0x3d9aa9ea	0.0755194
69	0xbce70e4b	-0.028205058
70	0xbfe8a5c4	-1.8175588
71	0xbe23f2ac	-0.1601054
72	0xbde7cd62	-0.113184705
73	0x3dd83b23	0.105581544
74	0x3ec791fc	0.38978565
75	0xbc26387e	-0.010145305
76	0x3d6e4da3	0.05817951
77	0x3d895c39	0.06707043
78	0xbe57e6cc	-0.21084136
79	0x3cee02b9	0.029054033
80	0xbd8aedfe	-0.06783675
81	0x3c989602	0.018626217
82	0x3e9597a4	0.29217255
83	0x3d862712	0.06550421
84	0x3c0a4dc3	0.008441391
85	0x3d012b78	0.031535596
86	0x3fa4d911	1.2878743
87	0x3e49b21b	0.19696848
88	0xbdc1b0ec	-0.09457573
89	0x3e1bdf72	0.15221956
90	0xbdd5dc0a	-0.1044236
91	0xbd224d15	-0.039624292
92	0xbcff31b1	-0.031151624
93	0x3e242875	0.16031058
94	0xbcf081b3	-0.02935872
95	0xbcd67386	-0.026178133
96	0x3cdc70d7	0.026909275
97	0x3d484f53	0.048903774
98	0x3ebbd014	0.3668219
99	0x3d9711a4	0.073764116
100	0xbbc742c6	-0.006080958
101	0x3cd9fd02	0.026609901
102	0x3fbf28fa	1.493438
103	0x3e690c7f	0.22758673
104	0xbc1e208d	-0.009651315
105	0xbc4c5cc2	-0.012473287
106	0xbf4fbf21	-0.81151015
107	0xbddbc6e1	-0.107312925
108	0x3b2b89f9	0.0026174767
109	0xbb80b96f	-0.0039283554
110	0xbf419d86	-0.75630987
111	0xbde2ac7e	-0.110680565
112	0x3cf6e24a	0.0301372
113	0x3dc1a19f	0.09454655
114	0x3e1a432c	0.15064687
115	0x3ddaf9c3	0.106921695
116	0x3dfae9bc	0.122516125
117	0xbddab8d4	-0.106797844
118	0xbff45657	-1.9088849
119	0xbe923b7a	-0.28561002
120	0x3ee96c8b	0.45590624
121	0x3ced7691	0.0289872
122	0xbf5e121b	-0.86746377
123	0x3c4a4c31	0.012347267
124	0x3cfa0d9b	0.030524066
125	0xbda9ebd4	-0.08296934
126	0x3e973e9a	0.2953995
127	0xbd998a34	-0.07497063
128	0xbc20cdb1	-0.009814666
129	0xbd429a4b	-0.047510426
130	0x3fbd89dc	1.4807696
131	0x3e104f5a	0.1409277
132	0xbd5c1287	-0.053728607
133	0xbe1c36a0	-0.15255213
134	0xbf358191	-0.7090083
135	0xbe40919d	-0.18805547
136	0xbe609610	-0.21932244
137	0xbe0fe177	-0.14050852
138	0x3e9e636d	0.3093523
139	0xbd6c0045	-0.057617445
140	0xbdc2af3c	-0.095060796
141	0xbe448c48	-0.19194138
142	0x3e412bd7	0.1886438
143	0xbd94f77b	-0.07273766
144	0xbd85a037	-0.06524699
145	0x3c82922e	0.015938845
146	0x3e98c648	0.29838777
147	0xbcd0b0c2	-0.02547491
148	0x3cb7f991	0.02245787
149	0xbd879f86	-0.066222236
150	0x3deda1fd	0.116031624
151	0x3cc6e17e	0.024277445
152	0xbeca6c00	-0.39535522
153	0xbec21c31	-0.37912133
154	0xbfa3c4c7	-1.2794427
155	0xbec5bbfd	-0.38619986
156	0xbe33c0cc	-0.17554015
157	0x3e1b8d30	0.15190578
158	0x3dde9877	0.10868924
159	0x3dc29ebe	0.09502934
160	0x3eaa3821	0.33245948
161	0xbda9f7e0	-0.082992315
162	0xbfa860e7	-1.3154572
163	0xbe4b6159	-0.19861354
164	0xbaa423a3	-0.0012522828
165	0xbd1ab5ca	-0.037771024
166	0xbde61f71	-0.11236466
167	0x3c84dc17	0.016218228
168	0xbe3abbfe	-0.18235776
169	0x3d85a8eb	0.06526359
170	0x3f7cfce8	0.98823404
171	0x3e979ce6	0.29611892
172	0x3e9cb4a0	0.30606556
173	0xbe28839c	-0.16456455
174	0xc0293281	-2.6437075
175	0xbed52928	-0.41632962
176	0xbe7bacc3	-0.24577622
177	0xbe1d0ffb	-0.15338127
178	0xbeb9bdcb	-0.36277613
179	0xbe63f243	-0.22260384
180	0xbe6f4526	-0.23366222
181	0xbd47dc4c	-0.048794076
182	0x3f17a1a9	0.5923105
183	0xbc7dc094	-0.015487809
184	0xbe60d199	-0.21954955
185	0x3e6c0c2d	0.2305152
186	0x3eda0d52	0.42588288
187	0x3d874d22	0.06606509
188	0xbd80f06f	-0.06295859
189	0x3d13b6f3	0.036063146
190	0xbf6e7117	-0.9314131
191	0xbdb5e479	-0.08881468
192	0xbf0d18b5	-0.55115825
193	0xbefdfe82	-0.49608237
194	0xbf19a1ae	-0.6001233
195	0xbed50019	-0.41601637
196	0xbe9a4cf8	-0.30136847
197	0xbe73e6ec	-0.23818558
198	0x3def69fc	0.11690137
199	0xbe82437b	-0.2544211
200	0xbdba0635	-0.09083215
201	0x3cee4c68	0.029089168
202	0x3e87cdd5	0.26524225
203	0x3cd14aca	0.025548358
204	0xbeed4293	-0.46339855
205	0xbe34d4eb	-0.17659347
206	0x3db58667	0.08863526
207	0x3ca006cd	0.019534493
208	0xbc86827c	-0.016419642
209	0x3d76f066	0.060287856
210	0x3f836080	1.0263824
211	0x3e802c90	0.25033998
212	0xbd4a9113	-0.04945476
213	0x3cc8b5d9	0.024500774
214	0x3fb7a52e	1.4347284
215	0x3d984ac3	0.07436135
216	0xbd6741bf	-0.056459185
217	0x3dc8e30b	0.0980893
218	0x3e77ff2c	0.24218434
219	0x3d1944fb	0.0374193
220	0xbe9a5ede	-0.30150503
221	0x3ce505a4	0.027956791
222	0x3f9d281a	1.2277863
223	0xbddc9bae	-0.10771881
224	0xbf39167d	-0.7229994
225	0xbf0b5261	-0.54422575
226	0xbf9d5d58	-1.2294111
227	0xbefae2ad	-0.49001065
228	0x3ddcc40b	0.1077958
229	0xbd7a3919	-0.06108961
230	0xbde89d01	-0.11358071
231	0x3c2c8f93	0.010532278
232	0x3ce29585	0.027659187
233	0x3b7cad01	0.0038555267
234	0x3fb0f35f	1.3824271
235	0x3e35fd7e	0.17772481
236	0x3d8f43a2	0.06995322
237	0xbc9df3a9	-0.019281225
238	0x3c12de24	0.008964095
239	0xbc489892	-0.012243407
240	0xbd95e37c	-0.0731878
241	0x3d5b9697	0.05361041
242	0x3e0595b5	0.1304539
243	0x3dbcb2cf	0.092137925
244	0xbd4d60cf	-0.050141152
245	0xbb3581ca	-0.0027695769
246	0xbccefad6	-0.025266092
247	0x3d57535a	0.052569725
248	0x3c9d6758	0.019214317
249	0xbcf7b427	-0.03023727
250	0xbf33d356	-0.7024435
251	0xbde7e18a	-0.11322315
252	0xbed8a30d	-0.42311898
253	0x3e2ebf07	0.17065059
254	0x3fd5084d	1.6643158
255	0x3ea93083	0.33044824

target_representation.model.0.bias f4 [128]
0	0xbd7216c1	-0.05910373
1	0x3e934142	0.28760725
2	0x3e83e2df	0.25759026
3	0x3e9d723f	0.30751225
4	0x3e5072ac	0.20356244
5	0x3e78d2c8	0.24299157
6	0x3e876cbd	0.26450148
7	0x3e82c131	0.25538018
8	0x3e6f4991	0.23367907
9	0x3e7cd871	0.24691941
10	0x3e8dfaaa	0.27730304
11	0x3e8ee1ac	0.2790655
12	0x3e5c11c0	0.21491146
13	0x3e816456	0.25271863
14	0x3e881e91	0.2658582
15	0xbeb67285	-0.35634246
16	0x3ec21843	0.37909135
17	0xbebfdb21	-0.3747187
18	0x3e871d02	0.2638932
19	0x3e583850	0.21115232
20	0x3e967fb2	0.293943
21	0xbe94533c	-0.28969753
22	0x3e8328a5	0.25616947
23	0x3e5ab796	0.21359095
24	0x3e8cf660	0.2753172
25	0xbe8ef0ab	-0.2791799
26	0x3e8c1ce9	0.27365807
27	0x3e90efbe	0.2830791
28	0x3e8e2f16	0.277703
29	0xbeb9984f	-0.36249015
30	0xbec16e8c	-0.37779653
31	0x3e7c19e1	0.24619247
32	0xbe91e6ed	-0.28496495
33	0x3e8d57d9	0.27606085
34	0xbeda4141	-0.4262791
35	0x3e7e0752	0.2480748
36	0x3e810311	0.25197652
37	0x3e8c7483	0.2743264
38	0x3e05b0fb	0.13055794
39	0x3e88b59b	0.26701054
40	0xbec28eec	-0.37999666
41	0x3e9835ac	0.29728448
42	0xbeb8c243	-0.3608571
43	0xbf096cd7	-0.536817
44	0x3e76434c	0.24049109
45	0xbee25426	-0.44204825
46	0x3e835779	0.25652674
47	0x3e959b88	0.29220223
48	0x3d8d7f2e	0.06909023
49	0x3e44d25f	0.19220875
50	0x3e83797c	0.25678623
51	0x3e5f2f9e	0.21795508
52	0xbdc79fa5	-0.09747247
53	0xbe8bfd7f	-0.2734184
54	0x3e658a77	0.22416101
55	0x3e1dedf1	0.15422799
56	0xbe72b324	-0.23701149
57	0x3e97dbfb	0.2966002
58	0xbe97cffd	-0.2965087
59	0x3e6ffdf0	0.23436713
60	0x3e98935b	0.29799923
61	0x3e8a59f7	0.27021763
62	0x3e843211	0.25819448
63	0x3eee8b6f	0.46590754
64	0x3e1c22c5	0.15247639
65	0x3e70fbc5	0.23533542
66	0x3e8182c2	0.25295073
67	0xbeb2f61b	-0.3495339
68	0x3e7c9bf8	0.24668872
69	0xbea43c0f	-0.3207707
70	0x3e64d9df	0.22348736
71	0xbeb100d3	-0.3457094
72	0x3e849e2f	0.25901935
73	0x3e807c42	0.250948
74	0x3e87ef28	0.2654965
75	0x3d9f4993	0.07777705
76	0x3e41697c	0.18887895
77	0x3e72cfb5	0.23712046
78	0x3e88c21e	0.267106
79	0x3e8e9ab1	0.27852395
80	0x3f1f77c0	0.622921
81	0xbe83e49a	-0.25760347
82	0x3e762a28	0.24039519
83	0x3e8c2dc6	0.27378672
84	0x3e8efb90	0.27926302
85	0x3e8df6e6	0.2772743
86	0xbeb26e15	-0.3484961
87	0x3e8005f0	0.2500453
88	0x3e7288a5	0.23684938
89	0x3e70d248	0.23517716
90	0x3f0cf8c0	0.5506706
91	0xbe940fe9	-0.28918388
92	0xbea5a275	-0.32350507
93	0x3e5b50d2	0.21417549
94	0x3e6da9fc	0.23209375
95	0x3e9df9d7	0.30854675
96	0xbec0c216	-0.37648076
97	0xbf1368c0	-0.5758171
98	0xbe9749ba	-0.29548436
99	0xbeaf5161	-0.34241775
100	0x3ea7f127	0.32801172
101	0xbf171f89	-0.59032494
102	0x3e8ca1ee	0.27467293
103	0xbeef6544	-0.46756947
104	0x3e9ae761	0.30254653
105	0x3e89f2ba	0.26942998
106	0xbe856ef6	-0.2606122
107	0x3e51c796	0.20486292
108	0xbdb78593	-0.08961024
109	0x3e709ce9	0.23497356
110	0x3e54d5d4	0.20784694
111	0xbe8bc80f	-0.2730107
112	0x3e8100be	0.2519588
113	0x3e7ddfac	0.24792355
114	0x3e41a5b5	0.18910868
115	0xbcdbc640	-0.026827931
116	0x3eb65abf	0.3561611
117	0xbecac43e	-0.39602846
118	0x3e8bd04f	0.27307364
119	0x3e764973	0.24051456
120	0x3e933a01	0.2875519
121	0x3e82ffd5	0.2558581
122	0x3e81feb7	0.25389645
123	0x3e9462f1	0.28981736
124	0x3e657d3b	0.22411053
125	0x3e6288dd	0.22122522
126	0x3e948af2	0.29012257
127	0x3e855435	0.26040807

eval_Qhead.model.0.weight f4 [128, 128]
0	0x3cab86e4	0.020938344
1	0x3e13bde8	0.14427912
2	0xbc78034d	-0.015137506
3	0x3dc9cf27	0.09853964
4	0x3d1faeaf	0.03898495
5	0x3d863bf1	0.06554402
6	0x3e0da569	0.1383263
7	0x3e741a45	0.23838146
8	0x3c503f83	0.012710455
9	0xbd4b2075	-0.0495915
10	0xbd251da2	-0.040311463
11	0xbd3e30b0	-0.04643315
12	0x3d303236	0.043016635
13	0x3e19bfb4	0.15014535
14	0x3dcd61d4	0.10028425
15	0xbfdb6449	-1.713998
16	0x3da05344	0.07828382
17	0xbff7763e	-1.933296
18	0x3bd57a58	0.0065148287
19	0xbd77def3	-0.060515355
20	0xbd1c263b	-0.038122397
21	0xbfe554e9	-1.7916538
22	0x3d878c64	0.06618574
23	0x3d6f8c1d	0.05848323
24	0x3e9e8a3d	0.30964842
25	0xbf95581a	-1.1667511
26	0xbd5d4ead	-0.05403011
27	0x3d94ec63	0.0727165
28	0x3d829ae0	0.06377196
29	0xbf1a0814	-0.60168576
30	0xbeba5159	-0.36390188
31	0x3db58e1b	0.08864995
32	0xbf444ea7	-0.76682514
33	0x3db135b7	0.086528234
34	0xbfaeb5c5	-1.3649222
35	0x3da17894	0.078843266
36	0x3e2abff2	0.16674784
37	0x3d9d8b97	0.0769264
38	0xbfabfd32	-1.3436644
39	0x3d127b07	0.03576186
40	0xbf3b5a7d	-0.7318495
41	0x3d667854	0.056267098
42	0xbf0f612c	-0.5600765
43	0x3e06174f	0.13094829
44	0x3d3712fb	0.044695836
45	0xbfc06cdd	-1.5033222
46	0xbc826ea9	-0.015921907
47	0xbe53f17a	-0.20697585
48	0xbf4b4e1d	-0.79416066
49	0xbd909f3f	-0.07061624
50	0xbdf3abeb	-0.11898025
51	0xbd8a472e	-0.06751858
52	0xbd7cdf5a	-0.061736442
53	0xbfed3674	-1.8532243
54	0x3d480a3a	0.048837878
55	0x3df42182	0.119204536
56	0xbf64e2b9	-0.8940845
57	0xbbee3b1e	-0.007270231
58	0xbfd126b2	-1.6339934
59	0x3d37a61c	0.04483615
60	0x3c325c2a	0.010886231
61	0x3e46d2a6	0.19416294
62	0x3d8e8a6d	0.06959996
63	0xbdf62b4d	-0.12019978
64	0x3c13047d	0.008973238
65	0x3d565c04	0.052333847
66	0x3d51e414	0.051242903
67	0xbf9d205e	-1.2275503
68	0xbd9beb09	-0.07613189
69	0xbed2a216	-0.41139287
70	0xbd17a480	-0.037022114
71	0xbec06556	-0.37577313
72	0xbd82bba3	-0.06383445
73	0x3e4e9aa0	0.20176172
74	0x3c85999c	0.016308598
75	0xbe790518	-0.2431835
76	0xbbf1321a	-0.007360709
77	0x3ca7e2bd	0.02049386
78	0x3e10615f	0.14099644
79	0x3dc3ee6c	0.0956696
80	0xbe1e79e8	-0.15476191
81	0xbfa56996	-1.2922847
82	0x3ddeada0	0.1087296
83	0xbd19bd57	-0.037534084
84	0xbe64e4db	-0.22352926
85	0x3dae52ed	0.085119106
86	0xbfb79680	-1.4342804
87	0xbc5b697f	-0.013391851
88	0x3d534dd4	0.051587895
89	0x3d8624ee	0.065500125
90	0xbf055516	-0.52082956
91	0xbff0d372	-1.8814528
92	0xbf0f3a13	-0.5594799
93	0x3d958709	0.073011465
94	0x3d8e6047	0.06951957
95	0xbce1421e	-0.027497347
96	0xbfa70707	-1.304902
97	0xbfa024d3	-1.2511238
98	0xbf84eea1	-1.0385324
99	0xbfe0795f	-1.753704
100	0xbe6ae68f	-0.22939514
101	0xbf57f3fb	-0.8435666
102	0x3e8669c5	0.2625257
103	0xbfa56d3f	-1.2923964
104	0x3e333a9f	0.17502831
105	0x3da29576	0.07938664
106	0xbfc0055f	-1.5001639
107	0x3e24af90	0.16082597
108	0xbd766d5c	-0.060162887
109	0x3dba4cbe	0.09096669
110	0x3da9a470	0.08283317
111	0xbf86219f	-1.047901
112	0x3d9b96ad	0.075970985
113	0x3d69e43d	0.05710243
114	0xbeaaa9d4	-0.33332694
115	0xbd3a16a6	-0.045431755
116	0xbe42a3ee	-0.19007847
117	0xbb6fb98c	-0.00365791
118	0x3d909236	0.070591375
119	0xbd6d5e56	-0.057951294
120	0x3c9938b3	0.018703794
121	0xbe5c1722	-0.214932
122	0x3e7791aa	0.2417666
123	0x3e013a28	0.12619841
124	0xbd669ef5	-0.056303937
125	0xbcfbc766	-0.030734729
126	0xbca09b2a	-0.019605238
127	0x3dceaac7	0.10091167
128	0x3dd9eb3f	0.10640573
129	0x3e050e40	0.12993717
130	0x3d67d5bd	0.05660032
131	0x3d5f60ac	0.054535553
132	0x3ee1e22f	0.44117877
133	0x3ddc25bb	0.10749384
134	0x3e22c8e3	0.15896945
135	0x3e4cf68f	0.2001593
136	0xbcaab700	-0.020839214
137	0x3e6df1ce	0.23236772
138	0x3e48ca71	0.19608475
139	0x3eb3dbc9	0.3512862
140	0x3e778390	0.24171281
141	0x3e369adf	0.17832516
142	0x3e345103	0.17609029
143	0xc001d03c	-2.0283346
144	0x3b88d5d2	0.00417588
145	0xc0200acc	-2.500659
146	0x3dc62d8b	0.096766554
147	0x3e5e1c3b	0.21690457
148	0x3dfe8775	0.1242818
149	0xbf401da6	-0.7504524
150	0x3d3b9bee	0.045803003
151	0x3d6cd86d	0.057823587
152	0x3e28527c	0.16437715
153	0xbed60a07	-0.41804525
154	0x3e21cd4f	0.15800975
155	0x3e2acf57	0.16680656
156	0x3e63594b	0.22202031
157	0xc038ff9d	-2.8906014
158	0xbe8e6ab3	-0.2781578
159	0x3e5e599e	0.21713874
160	0xbda23e75	-0.07922069
161	0x3ee66c6e	0.450046
162	0xbfbcc275	-1.4746844
163	0x3e7ed962	0.24887612
164	0x3e7b8a86	0.24564561
165	0x3e19f6db	0.15035574
166	0xbf62ddeb	-0.8861987
167	0x3ea57235	0.32313696
168	0xbe77cea5	-0.24199922
169	0x3ed7adf5	0.42124906
170	0xbf138e5b	-0.5763909
171	0xc0105534	-2.2552004
172	0x3e715a58	0.2356962
173	0xc015bda7	-2.3397005
174	0x3e14f6ef	0.14547323
175	0x3e94b6fa	0.2904585
176	0xbe963495	-0.29336992
177	0x3bcbbfa7	0.006217915
178	0x3e5f8c24	0.21830803
179	0x3e4a48dc	0.19754356
180	0xbdcaf8a8	-0.09910709
181	0xbfaa7366	-1.3316467
182	0x3db502be	0.08838414
183	0xbe9ef4e6	-0.31046218
184	0xbf12b27f	-0.57303613
185	0x3ebf2900	0.37335968
186	0xbf6c6640	-0.9234352
187	0x3ec633c2	0.38711363
188	0x3e97f360	0.29677868
189	0x3b8e8e4c	0.004350459
190	0x3ed1c50f	0.40970656
191	0x3d98ab86	0.074545905
192	0xbdb5d144	-0.08877805
193	0x3e8a6a5d	0.27034274
194	0x3dd9dd6a	0.106379345
195	0xc0424804	-3.0356455
196	0x3e80749d	0.2508897
197	0xbef259f1	-0.47334245
198	0x3e9e97f1	0.30975297
199	0xc02a1035	-2.6572392
200	0x3e8baf7d	0.27282324
201	0x3d86230a	0.06549652
202	0x3e438ace	0.19095919
203	0x3ef5a391	0.47976354
204	0x3c68c132	0.014206218
205	0x3e326d08	0.17424405
206	0x3e0a5117	0.13507496
207	0x3e86b853	0.26312503
208	0xbeb2d0ab	-0.34924826
209	0xbe9c151c	-0.30484855
210	0xbc879a44	-0.016553052
211	0x3e0bf689	0.13668264
212	0x3e7a4f05	0.24444206
213	0x3e8eab5c	0.27865112
214	0xbfbe19e5	-1.4851652
215	0x3db28007	0.087158255
216	0x3e91d851	0.2848535
217	0x3eb1b906	0.34711474
218	0xbe228d56	-0.15874228
219	0xbf80559f	-1.002613
220	0x3e146b0f	0.14493965
221	0x3f25c2de	0.6475047
222	0x3e131c63	0.14366297
223	0x3eaf7fe0	0.34277248
224	0xc03b2e72	-2.9247098
225	0xbff86aac	-1.9407554
226	0xbea88745	-0.32915702
227	0xbffebab1	-1.9900724
228	0x3e968b26	0.29403037
229	0xbfad18e5	-1.3523222
230	0x3e84ab0c	0.25911748
231	0xbfcd6dd0	-1.6049137
232	0x3eb01067	0.34387514
233	0x3e66fd97	0.22557674
234	0xbf4a06a8	-0.78916407
235	0x3e711dc8	0.23546517
236	0xbca7ce3f	-0.020484088
237	0x3f05e181	0.52297217
238	0x3e43b1c1	0.19110776
239	0xbe948e64	-0.29014885
240	0x3e379baa	0.17930475
241	0xbc3e7cda	-0.011626447
242	0xbeb07b9f	-0.34469315
243	0xbbd216c7	-0.0064114067
244	0x3e0a4662	0.13503411
245	0xbe2d215b	-0.16907255
246	0x3e942573	0.2893482
247	0x3e827c5f	0.25485513
248	0x3e41bff1	0.18920876
249	0xbdc836b3	-0.09776058
250	0x3e89029d	0.26759806
251	0x3e626535	0.2210892
252	0x3e283f5b	0.16430418
253	0xbc1d0278	-0.009583108
254	0x3e8941f9	0.26808146
255	0xbdf61021	-0.12014795

eval_Qhead.model.0.bias f4 [128]
0	0x3e0e624e	0.13904688
1	0x3e8749ba	0.26423436
2	0x3e8e9ee3	0.27855596
3	0x3e682514	0.22670394
4	0x3e733de7	0.23754083
5	0xbd11b3de	-0.035571925
6	0xbc10510e	-0.008808387
7	0xbcb5bc6a	-0.02218457
8	0x3e141d37	0.1446427
9	0x3e1ed659	0.15511455
10	0xbd07de9f	-0.033171292
11	0x3e122e66	0.14275512
12	0xbcc9cabd	-0.024632806
13	0x3e0e81e2	0.13916734
14	0x3e30deaa	0.1727244
15	0x3dde775e	0.10862611
16	0x3e7de226	0.247933
17	0xbd8305bb	-0.063975774
18	0x3e0606d9	0.1308855
19	0x3e8a1079	0.26965693
20	0xbce70003	-0.028198248
21	0xbd0dfadd	-0.03466307
22	0x3de8ad1b	0.11361142
23	0x3e5c0114	0.21484786
24	0x3e755bb7	0.23960768
25	0xbcd86ca4	-0.026418991
26	0x3e7344d0	0.23756719
27	0x3ddfa956	0.1092097
28	0x3e89a5c6	0.26884288
29	0x3e73964c	0.23787802
30	0x3e1bc6ba	0.15212527
31	0x3e8a000f	0.2695317
32	0x3e251576	0.16121468
33	0xbc3a6fa8	-0.01137916
34	0xbdbe4cda	-0.09292002
35	0x3de5313f	0.111910336
36	0x3e4e85ef	0.20168279
37	0x3e51386c	0.2043168
38	0xbcee465e	-0.029086288
39	0x3ddd9058	0.10818547
40	0xbcd0f323	-0.025506562
41	0x3e78065c	0.24221176
42	0x3c6fd658	0.014638506
43	0x3e0d7e50	0.13817716
44	0x3e805431	0.25064233
45	0xbcc1c856	-0.023655098
46	0x3e806338	0.25075698
47	0x3e91fea3	0.28514585
48	0x3e85f539	0.26163653
49	0x3e371107	0.17877589
50	0x3e9c7278	0.30556083
51	0x3e90ab4a	0.28255683
52	0xbc6f79c0	-0.01461643
53	0xbd20b9c8	-0.039239675
54	0x3e39a4ec	0.18129319
55	0x3e0f732b	0.14008777
56	0x3e857b0f	0.2607045
57	0xbc950265	-0.018189618
58	0x3e681b8f	0.22666763
59	0xbd29f291	-0.041491095
60	0xbce336b5	-0.027736047
61	0x3e7fb7c0	0.24972439
62	0xbae8e0cd	-0.0017767191
63	0xbc86ec71	-0.016470166
64	0xbc77fffe	-0.015136717
65	0x3ea52b3c	0.32259548
66	0x3e7db349	0.24775423
67	0xbc211e5f	-0.009833901
68	0x3e71013f	0.23535632
69	0x3e9245e4	0.28568947
70	0x3dd33c0d	0.10314188
71	0x3e6c93fd	0.23103328
72	0x3e8604ba	0.2617548
73	0x3de7bbd0	0.11315119
74	0x3ebfc652	0.37455994
75	0xbd864ad5	-0.06557242
76	0x3e8627f0	0.26202345
77	0xbc54d614	-0.012990493
78	0xbcbffe5b	-0.023436716
79	0x3de07a98	0.10960883
80	0x3e8a1227	0.26966974
81	0x3e60b60f	0.2194445
82	0x3e34c760	0.1765418
83	0x3e82314f	0.25428244
84	0x3ed055cb	0.40690455
85	0xbd867ba1	-0.06566549
86	0x3e6f1551	0.23347975
87	0x3e0e7c90	0.13914704
88	0x3e8ae2bc	0.2712611
89	0x3e572b09	0.2101251
90	0x3e7b60c5	0.24548633
91	0x3e68ac50	0.22721982
92	0xbc992f14	-0.018699206
93	0x3e655865	0.22397001
94	0x3ab4a127	0.0013780937
95	0xbcc5d618	-0.02414994
96	0x3e672c68	0.22575533
97	0x3e7308d1	0.23733832
98	0x3e915a9d	0.28389445
99	0xbcd1610f	-0.025558976
100	0x3e6e529a	0.23273697
101	0x3e6bc940	0.2302599
102	0x3e951875	0.29120222
103	0xbc15107e	-0.00909817
104	0x3e2368e8	0.15957987
105	0x3e93c0a2	0.28857905
106	0x3e5f4b42	0.21806052
107	0x3ea59179	0.3233755
108	0x3e51c862	0.20486596
109	0x3e7647bb	0.240508
110	0x3ebe42c3	0.3716031
111	0xbc4309bf	-0.011904179
112	0x3e872458	0.26394916
113	0x3e8641e4	0.26222146
114	0x3e74b446	0.23896894
115	0xbc2c97d3	-0.010534245
116	0xbc90ad21	-0.01766068
117	0xbc93b2cd	-0.018029595
118	0xbd26fadc	-0.040766582
119	0x3e7ac27d	0.24488254
120	0x3e20856f	0.15675901
121	0x3e6edbb8	0.23326004
122	0x3e3be7b3	0.18350105
123	0xbd1d95c3	-0.038472902
124	0x3de17f97	0.11010664
125	0xbcaf2d1b	-0.021383813
126	0xbd17edba	-0.037091948
127	0x3e66513d	0.22491927

eval_Qhead.model.2.weight f4 [2, 128]
0	0x3f3a56d4	0.7278874
1	0x3e8d8c4b	0.27646098
2	0x3e693b08	0.22776425
3	0x3f236bb2	0.63836205
4	0x3f3ecc2a	0.7453028
5	0x3dc82ad1	0.097737916
6	0x3c6f1b9a	0.014593983
7	0x3dad89e2	0.08473565
8	0x3efd24ba	0.49442083
9	0x3ee9ed8d	0.4568905
10	0xbd4aed4b	-0.049542706
11	0x3f172e48	0.59054995
12	0x3c4c5c08	0.012473114
13	0x3f37da13	0.7181713
14	0x3f293b94	0.66106534
15	0x3f344e23	0.7043173
16	0x3ed1b194	0.40955794
17	0xbd9ff663	-0.078106664
18	0x3f2374c8	0.6385007
19	0x3f13a9bc	0.5768087
20	0xbd309afc	-0.043116555
21	0xbec6f542	-0.38858992
22	0x3f20e4ec	0.6284931
23	0x3f8f0ccb	1.1175779
24	0x3f454383	0.7705614
25	0xbe8d99e7	-0.2765648
26	0x3eba1495	0.36343828
27	0x3f561cc6	0.83637655
28	0x3eb4e277	0.3532903
29	0x3dfdfce8	0.12401754
30	0x3f35b5b2	0.7098037
31	0x3f420c96	0.75800455
32	0x3f3c2ff1	0.7351065
33	0xbd9be59d	-0.07612155
34	0xbec7b02b	-0.39001593
35	0x4011c9ff	2.2779539
36	0xbf7b0b07	-0.980637
37	0x3f4eea56	0.8082632
38	0x3c1d4a6c	0.009600263
39	0x3f0e8ae0	0.55680656
40	0x3c1f94a6	0.00974003
41	0x3ef1e6d4	0.4724642
42	0xbfb6b82f	-1.4274958
43	0x3f55ab88	0.8346486
44	0x3cc69070	0.024238795
45	0xbd842ec1	-0.0645423
46	0x3f2b0ea7	0.6681923
47	0x3ecb7014	0.39733946
48	0x3f31f1c9	0.6950956
49	0x3f5a3e29	0.852511
50	0x3f4b120e	0.79324424
51	0x3f56034f	0.835988
52	0x3daab8a1	0.083359964
53	0xbd219ff5	-0.039459188
54	0x3f6922ed	0.9106892
55	0x3f218aa4	0.63102174
56	0x3f261a90	0.6488428
57	0xbd984e54	-0.07436815
58	0x3f06bc44	0.5263102
59	0xbc0f893a	-0.008760745
60	0xbcebbdcb	-0.028777024
61	0x3f6a7fd3	0.91601294
62	0x3d7a2386	0.061069034
63	0xbcffcec7	-0.031226529
64	0xbc140936	-0.009035399
65	0x3f81620d	1.0108048
66	0x3f52d111	0.8235026
67	0xbd39e89c	-0.04538785
68	0x3ee8adc3	0.4544507
69	0x3e9a532e	0.30141586
70	0x3f8f3bc5	1.1190115
71	0x3f2374b5	0.63849956
72	0x3f55c8b1	0.83509356
73	0x3f408dd2	0.752164
74	0xbf3c4d5b	-0.73555535
75	0xbeb4d524	-0.35318863
76	0x3f8646ff	1.0490416
77	0x3d6bb01b	0.057540994
78	0x3d02f04e	0.031967454
79	0x3f2ad49d	0.6673067
80	0x3f0bef7b	0.54662293
81	0x3f2f1bcf	0.6840181
82	0x3f12a0fb	0.57276887
83	0x3eb44b59	0.35213736
84	0xbf252366	-0.6450714
85	0xbe9833c4	-0.29726994
86	0x3ef7f119	0.4842613
87	0xbf75b158	-0.9597373
88	0x3f4000a6	0.7500099
89	0x3f3ff6ff	0.7498626
90	0x3f1b9c01	0.6078492
91	0x3f1e90e7	0.61939853
92	0xbcb4254a	-0.021990437
93	0x3f3b3583	0.7312853
94	0xbd1f022d	-0.038820434
95	0x3a382458	0.00070244586
96	0x3f1dde0a	0.6166693
97	0x3f277025	0.65405494
98	0x3f870e43	1.0551227
99	0xbc9008b7	-0.01758228
100	0x3f3042d8	0.68851995
101	0x3eee7df3	0.46580467
102	0x3f661afd	0.8988493
103	0xbd96df81	-0.07366849
104	0x3f33a97b	0.7018048
105	0x3f7ce0be	0.9878043
106	0x3f24a053	0.64307135
107	0x3f89e686	1.0773475
108	0x3f639992	0.88906205
109	0x3eac76f5	0.33684507
110	0x3f95612f	1.1670283
111	0x3b76b898	0.0037646648
112	0x3cb718c9	0.022350686
113	0x3f0f3127	0.55934376
114	0x3eb8a32e	0.36061996
115	0xbd03cd4b	-0.032178205
116	0xbd57f27c	-0.052721485
117	0xbd20e389	-0.039279494
118	0xbb42145a	-0.0029614181
119	0xbd809cfa	-0.06279941
120	0x3f50bf9a	0.8154236
121	0x3f2430a8	0.64136744
122	0x3eb6b355	0.35683694
123	0x3fad2512	1.3526938
124	0x3dd69264	0.104771405
125	0x39cac44c	0.00038674695
126	0xbc8eb0e6	-0.017418336
127	0x3f53f050	0.8278856
128	0x3e863753	0.26214084
129	0x3f584f8e	0.8449639
130	0x3f4e25fc	0.8052671
131	0x3f8141a7	1.009816
132	0x3f51c2ba	0.81937754
133	0xbd6c946e	-0.05775874
134	0xbd88d806	-0.06681828
135	0xbd92a97e	-0.07161234
136	0x3f77f763	0.9686186
137	0x3f8dffe2	1.1093714
138	0x3c26bd1e	0.010176925
139	0x3f4aa5b4	0.7915909
140	0xbc5b21c4	-0.01337475
141	0x3ee60dbb	0.4493235
142	0x3f1a063d	0.6016577
143	0x3ee4a592	0.4465757
144	0x3f285bde	0.6576518
145	0x3d51c5b7	0.051213946
146	0x3e765d0c	0.24058932
147	0x3f809520	1.0045509
148	0x3cc17801	0.023616793
149	0xc01eaec7	-2.4794176
150	0x3f314595	0.692468
151	0xbf463ecd	-0.77439576
152	0x3f191b88	0.59807634
153	0xc0162931	-2.3462641
154	0x3ecb85fc	0.3975066
155	0x3ecea5fb	0.40361008
156	0x3f35095d	0.7071741
157	0x3f41ca00	0.7569885
158	0x3f02fa4f	0.5116319
159	0x3f6d297d	0.9264143
160	0x3f1c4c82	0.6105424
161	0xbccde4ee	-0.025133576
162	0xc016be02	-2.3553472
163	0xbfb81d6f	-1.4383982
164	0x3e8b5240	0.2721119
165	0x3f0f9ad1	0.56095606
166	0xbd03ee38	-0.032209605
167	0x3f1cba53	0.6122181
168	0xbc249a5b	-0.010046567
169	0x3f11fee5	0.57029563
170	0xbee15ddb	-0.4401692
171	0xbe144370	-0.1447885
172	0x3f66f072	0.9021064
173	0xbc3f1f30	-0.0116651505
174	0x3ed7f3ca	0.42178184
175	0x3f4b8939	0.7950626
176	0x3f0ebd9b	0.55758065
177	0x3f0e935b	0.55693597
178	0x3f0f2e97	0.55930465
179	0x3f259ffb	0.64697236
180	0xbd91d28b	-0.07120236
181	0xbd13ddb1	-0.036100093
182	0x3f1b5156	0.60670984
183	0x3f4d6993	0.8023922
184	0xbf292bd9	-0.6608253
185	0xbf5c6ca8	-0.86103296
186	0x3f1e219e	0.61770046
187	0xbc24f5ee	-0.0100684
188	0xbd204e7b	-0.039137345
189	0x3eef018d	0.4668087
190	0xbd22b7ad	-0.039725948
191	0x3c30a51e	0.0107815545
192	0xbd8fd64a	-0.07023294
193	0x3efefa04	0.49800122
194	0x3f128abd	0.5724295
195	0x3c379562	0.011205049
196	0x3f1a1ee3	0.6020338
197	0x3f56b304	0.83866906
198	0xbec6c013	-0.38818416
199	0x3f5c703f	0.86108774
200	0x3edaed58	0.42759204
201	0x3f0a9428	0.5413232
202	0x3f33957c	0.7014997
203	0xc01b5454	-2.427022
204	0x3f2bdaa1	0.67130476
205	0xbcbbfb7f	-0.022947071
206	0xbd86dbc6	-0.06584887
207	0x3ee472e9	0.4461892
208	0x3f1e23af	0.617732
209	0x3f1ac879	0.60462147
210	0x3f72b512	0.9480754
211	0x3f3f9854	0.7484181
212	0x3f4b1921	0.7933522
213	0xc0256a51	-2.584614
214	0x3ebae7ee	0.36505073
215	0x3ecc3e8e	0.39891475
216	0x3f260c0a	0.6486212
217	0xbf26f6e4	-0.65220475
218	0x3f1c8eb4	0.6115525
219	0x3eada37c	0.3391379
220	0xbd44f287	-0.048082855
221	0x3f39b780	0.72545624
222	0x3d7c9300	0.061663628
223	0xbcc11b6c	-0.023572646
224	0x3edab568	0.42716527
225	0x3f694f74	0.9113686
226	0x3ef5310e	0.47888988
227	0x3d6bcbcc	0.057567403
228	0x3f6ef02f	0.9333524
229	0x3ecee4dd	0.40408984
230	0x3f229765	0.6351226
231	0xbd8cf8d5	-0.068833984
232	0x3ea038a2	0.31293207
233	0x3f182e88	0.59446
234	0x3eb693e3	0.35659704
235	0xbf337356	-0.70097864
236	0x3e6a285b	0.22866957
237	0x3f35b0a9	0.70972687
238	0xbf0427ef	-0.51623434
239	0xbd04f026	-0.032455586
240	0x3f45aa5d	0.7721308
241	0x3f646bdd	0.89227086
242	0x3f2ee324	0.6831534
243	0xbd601b7f	-0.054713722
244	0x3aca6802	0.0015442374
245	0xbd6e31dc	-0.05815302
246	0x3d4702ee	0.04858678
247	0x3f5626a7	0.8365273
248	0x3dfcea40	0.12349367
249	0x3ead8d71	0.33896974
250	0x3f50f41f	0.816225
251	0xbfa4614d	-1.2842194
252	0xbf4da642	-0.80331814
253	0xbdda43b3	-0.10657444
254	0xbcc15243	-0.023598796
255	0x3f23d8ea	0.6400286

eval_Qhead.model.2.bias f4 [2]
0	0x3e2bb7ac	0.16769284
1	0x3e2aaf80	0.1666851

target_Qhead.model.0.weight f4 [128, 128]
0	0x3cab86e4	0.020938344
1	0x3e13330f	0.14374946
2	0xbc5c0c4e	-0.013430668
3	0x3dc85280	0.097813606
4	0x3d28dd01	0.04122639
5	0x3d89efa8	0.06735164
6	0x3e0f1017	0.13970982
7	0x3e75fb19	0.24021567
8	0x3c6a4a58	0.0142999515
9	0xbd4072b0	-0.046984375
10	0xbd286078	-0.041107625
11	0xbd3a33e9	-0.04545966
12	0x3d39a143	0.045319807
13	0x3e1b309b	0.1515526
14	0x3dd2433f	0.102667324
15	0xbfdb6449	-1.713998
16	0x3da53075	0.08065883
17	0xbff7763e	-1.933296
18	0x3c03839b	0.008026983
19	0xbd786fb1	-0.060653392
20	0xbd1a0993	-0.037606787
21	0xbfe5a8b0	-1.7942104
22	0x3d8b9177	0.068148546
23	0x3d74fa4b	0.05980901
24	0x3e9e3b17	0.30904457
25	0xbf967dc9	-1.1757137
26	0xbd5380c1	-0.05163646
27	0x3d997a20	0.074939966
28	0x3d810de0	0.063014746
29	0xbf19e708	-0.6011815
30	0xbebc5d23	-0.36789808
31	0x3db782e7	0.089605145
32	0xbf444ea7	-0.76682514
33	0x3db82286	0.0899096
34	0xbfaeb5c5	-1.3649222
35	0x3da60b2d	0.081076
36	0x3e2c27ff	0.16812132
37	0x3d9ddeeb	0.07708534
38	0xbfab0ba0	-1.3362923
39	0x3d17ed2f	0.03709143
40	0xbf3b6250	-0.7319689
41	0x3d694c0a	0.056957282
42	0xbf0f6188	-0.56008196
43	0x3e069359	0.13142146
44	0x3d49c37f	0.049258705
45	0xbfc06cdd	-1.5033222
46	0xbc691beb	-0.014227848
47	0xbe514bf4	-0.2043913
48	0xbf4993b8	-0.78741026
49	0xbd87323b	-0.066013776
50	0xbdf155fe	-0.1178398
51	0xbd8583ef	-0.06519305
52	0xbd985198	-0.07437438
53	0xbfed3674	-1.8532243
54	0x3d4ae2f4	0.049532846
55	0x3dfbfbad	0.12303863
56	0xbf64e214	-0.8940747
57	0xbbf83b26	-0.0075754104
58	0xbfd1648b	-1.6358808
59	0x3d37dd9b	0.044889074
60	0x3c39c17f	0.011337637
61	0x3e47910a	0.19488922
62	0x3d931756	0.07182185
63	0xbdf583d4	-0.11988035
64	0x3c567194	0.013088603
65	0x3d5bf3ba	0.053699233
66	0x3d57d7ae	0.052695923
67	0xbf9d1f0f	-1.2275103
68	0xbd973bd6	-0.0738446
69	0xbed2a216	-0.41139287
70	0xbd0cc1c1	-0.034364466
71	0xbebfbf3f	-0.37450597
72	0xbd77ff3e	-0.060546152
73	0x3e4f20b0	0.20227313
74	0x3c97a287	0.018510116
75	0xbe749afd	-0.23887248
76	0xbb55627d	-0.0032559924
77	0x3cb9d97b	0.02268671
78	0x3e112baf	0.1417682
79	0x3dc47286	0.09592156
80	0xbe1e1459	-0.1543745
81	0xbfa56996	-1.2922847
82	0x3de1f86d	0.110337116
83	0xbd17cc56	-0.037060104
84	0xbe650fb7	-0.22369276
85	0x3dac7b44	0.084219486
86	0xbfb79680	-1.4342804
87	0xbc29e4f4	-0.010369528
88	0x3d592940	0.053017855
89	0x3d8c7494	0.06858173
90	0xbf0606a3	-0.52353877
91	0xbff0eccc	-1.8822265
92	0xbf1224ad	-0.5708721
93	0x3d9b5ab7	0.07585662
94	0x3d8e2a14	0.069416195
95	0xbcde889e	-0.027164754
96	0xbfa70707	-1.304902
97	0xbfa024d3	-1.2511238
98	0xbf84eea1	-1.0385324
99	0xbfe0795f	-1.753704
100	0xbe6a96f6	-0.2290915
101	0xbf57f3fb	-0.8435666
102	0x3e86c7f6	0.26324433
103	0xbfa56d3f	-1.2923964
104	0x3e3269c0	0.17423153
105	0x3da3da7a	0.080006555
106	0xbfc08c69	-1.504285
107	0x3e27bb4f	0.16380046
108	0xbd766d5c	-0.060162887
109	0x3da66770	0.08125198
110	0x3dafb6aa	0.08579762
111	0xbf86219f	-1.047901
112	0x3da28d73	0.079371355
113	0x3d701688	0.058615237
114	0xbea9a5b0	-0.33134222
115	0xbd3a16a6	-0.045431755
116	0xbe419b27	-0.18906842
117	0xbba1ff15	-0.004943738
118	0x3d926019	0.071472354
119	0xbd6cb285	-0.057787437
120	0x3c95d039	0.018287765
121	0xbe5a4542	-0.21315482
122	0x3e78287e	0.24234197
123	0x3e01eb3d	0.12687393
124	0xbd5b4bba	-0.053539015
125	0xbcf0440d	-0.029329324
126	0xbca01843	-0.019542819
127	0x3dd2989a	0.10283013
128	0x3dd9eb3f	0.10640573
129	0x3e04b78c	0.12960643
130	0x3d670c6b	0.056408327
131	0x3d5f0b5a	0.054454185
132	0x3ee1e12d	0.44117108
133	0x3ddc6f84	0.107634574
134	0x3e22ec10	0.15910363
135	0x3e4d3563	0.20039897
136	0xbcaaa0b6	-0.020828586
137	0x3e6e2d24	0.23259407
138	0x3e486a30	0.19571757
139	0x3eb3e291	0.35133794
140	0x3e778e85	0.2417546
141	0x3e36995f	0.17831944
142	0x3e348a5b	0.17630903
143	0xc001a3b4	-2.0256166
144	0x3b8cceb3	0.0042971014
145	0xc0200acc	-2.500659
146	0x3dc635b6	0.09678213
147	0x3e5dffde	0.21679637
148	0x3dfe5b99	0.124198146
149	0xbf41d34b	-0.7571303
150	0x3d3c5bed	0.045986105
151	0x3d6d7a8f	0.05797821
152	0x3e280898	0.16409528
153	0xbedad7c1	-0.42742732
154	0x3e220b8b	0.15824716
155	0x3e2b0419	0.16700782
156	0x3e63233d	0.22181411
157	0xc03909d1	-2.8912241
158	0xbe8ef4f6	-0.27921265
159	0x3e5e0e79	0.21685208
160	0xbda19848	-0.078903735
161	0x3ee67563	0.45011434
162	0xbfbcac09	-1.4740001
163	0x3e7ecd54	0.24883014
164	0x3e7b7bbe	0.24558923
165	0x3e19bf41	0.15014364
166	0xbf6333e4	-0.88751054
167	0x3ea582ea	0.32326442
168	0xbe77d3bc	-0.24201864
169	0x3ed7a2ff	0.42116544
170	0xbf149839	-0.58044773
171	0xc0105b8d	-2.2555878
172	0x3e713135	0.23553927
173	0xc015b86c	-2.3393812
174	0x3e151b01	0.14561082
175	0x3e94dfcc	0.29076993
176	0xbe9707bc	-0.29498088
177	0x3bbc8116	0.005752693
178	0x3e5f86b0	0.21828723
179	0x3e49fdc4	0.1972571
180	0xbdcf86ca	-0.10133131
181	0xbfaa7366	-1.3316467
182	0x3db4f526	0.08835821
183	0xbe9f0afb	-0.31063065
184	0xbf130550	-0.5742998
185	0x3ebefdda	0.37303048
186	0xbf6dd321	-0.9290028
187	0x3ec60e43	0.38682756
188	0x3e97ef1e	0.2967462
189	0x3b8dc8ab	0.0043269
190	0x3ed1dc2b	0.40988287
191	0x3d9891bd	0.07449672
192	0xbdb579c5	-0.08861116
193	0x3e8a753d	0.2704257
194	0x3dd9fa9d	0.10643504
195	0xc0425036	-3.0361457
196	0x3e8079f5	0.25093046
197	0xbef17454	-0.47159064
198	0x3e9e5a5f	0.30928323
199	0xc02a41b7	-2.660261
200	0x3e8bacda	0.27280313
201	0x3d85ee17	0.06539553
202	0x3e43ba59	0.19114055
203	0x3ef34b09	0.47518185
204	0x3c6126d0	0.013742164
205	0x3e32a6a5	0.17446382
206	0x3e0a42f4	0.13502103
207	0x3e86ac5c	0.26303375
208	0xbeb309a4	-0.34968293
209	0xbe9b2fe7	-0.30309984
210	0xbc86cb66	-0.01645441
211	0x3e0be304	0.13660818
212	0x3e7a261e	0.24428603
213	0x3e8e9284	0.27846158
214	0xbfbe19e5	-1.4851652
215	0x3db2edfd	0.08736799
216	0x3e91db9c	0.2848786
217	0x3eb1bfb8	0.34716582
218	0xbe22de69	-0.15905155
219	0xbf80fd5e	-1.0077322
220	0x3e089ed8	0.13341844
221	0x3f25aade	0.6471385
222	0x3e13661b	0.14394419
223	0x3eaf74cb	0.34268793
224	0xc03b2fba	-2.924788
225	0xbff7d220	-1.9361
226	0xbea87dc4	-0.32908452
227	0xbffebab1	-1.9900724
228	0x3e9689af	0.2940192
229	0xbfacc1ac	-1.3496604
230	0x3e84a5c8	0.2590773
231	0xbfccd479	-1.6002342
232	0x3eafe2e8	0.34352803
233	0x3e66b948	0.22531617
234	0xbf4a5618	-0.7903762
235	0x3e71293d	0.23550887
236	0xbca7ce3f	-0.020484088
237	0x3f0453b0	0.51690197
238	0x3e43b873	0.1911333
239	0xbe942ed6	-0.28941983
240	0x3e378bda	0.17924443
241	0xbc410be9	-0.011782625
242	0xbeb08d58	-0.34482837
243	0xbbd216c7	-0.0064114067
244	0x3e0a05d1	0.13478781
245	0xbe2e03c2	-0.16993621
246	0x3e941527	0.28922388
247	0x3e825806	0.25457782
248	0x3e414aec	0.18876237
249	0xbdc8581a	-0.09782429
250	0x3e88dd8c	0.26731527
251	0x3e624cd8	0.22099626
252	0x3e27e2e7	0.1639515
253	0xbc1d87f2	-0.009614931
254	0x3e8940e1	0.2680731
255	0xbdf5fd66	-0.120112225

target_Qhead.model.0.bias f4 [128]
0	0x3e0f1b3c	0.13975233
1	0x3e873723	0.26409253
2	0x3e8e8e42	0.2784291
3	0x3e67dbe7	0.2264248
4	0x3e731a1a	0.23740426
5	0xbd11b3de	-0.035571925
6	0xbc10510e	-0.008808387
7	0xbcb5bc6a	-0.02218457
8	0x3e144288	0.14478505
9	0x3e1fa1b1	0.15589024
10	0xbd07de9f	-0.033171292
11	0x3e10aefa	0.14129248
12	0xbcc9cabd	-0.024632806
13	0x3e0e47c0	0.13894558
14	0x3e311dda	0.17296544
15	0x3dde775e	0.10862611
16	0x3e7dadfe	0.24773404
17	0xbd8305bb	-0.063975774
18	0x3e04cf82	0.12969783
19	0x3e89d543	0.26920518
20	0xbce70003	-0.028198248
21	0xbd0dfbfa	-0.03466413
22	0x3de9d3ef	0.11417376
23	0x3e5ba67b	0.21450226
24	0x3e751ba3	0.23936324
25	0xbcd86e57	-0.026419802
26	0x3e7309d1	0.23734213
27	0x3ddfa956	0.1092097
28	0x3e898ec1	0.26866725
29	0x3e737d4e	0.23778269
30	0x3e199dee	0.15001652
31	0x3e89c635	0.26909032
32	0x3e24e928	0.16104567
33	0xbc3a6fa8	-0.01137916
34	0xbdbe4cda	-0.09292002
35	0x3de48602	0.111583725
36	0x3e4eafc4	0.20184237
37	0x3e50c81b	0.20388834
38	0xbcee465e	-0.029086288
39	0x3dd9acca	0.1062866
40	0xbcd0f323	-0.025506562
41	0x3e77cca5	0.2419916
42	0x3c760551	0.015015916
43	0x3e10e9be	0.14151666
44	0x3e804ce5	0.25058666
45	0xbcc1c856	-0.023655098
46	0x3e803e65	0.25047603
47	0x3e91e779	0.28496912
48	0x3e85d302	0.2613755
49	0x3e363fc7	0.17797767
50	0x3e9c50c8	0.3053038
51	0x3e906fee	0.28210396
52	0xbc6f79c0	-0.01461643
53	0xbd20b9c8	-0.039239675
54	0x3e38da80	0.18052101
55	0x3e10575d	0.14095826
56	0x3e8553d1	0.2604051
57	0xbc84bbd2	-0.016202841
58	0x3e67e0d2	0.22644356
59	0xbd29f291	-0.041491095
60	0xbce336b5	-0.027736047
61	0x3e7f4403	0.24928288
62	0xbae8e0cd	-0.0017767191
63	0xbc86ec71	-0.016470166
64	0xbc77fffe	-0.015136717
65	0x3ea4f9f9	0.32221964
66	0x3e7d3e87	0.24730884
67	0xbc211e5f	-0.009833901
68	0x3e70c9ca	0.23514476
69	0x3e923279	0.28554133
70	0x3dd1c082	0.10241796
71	0x3e6c121f	0.23053788
72	0x3e85cc23	0.26132306
73	0x3de7bbd0	0.11315119
74	0x3ebff09b	0.37488255
75	0xbd864ad5	-0.06557242
76	0x3e861ef1	0.2619548
77	0xbc54d614	-0.012990493
78	0xbcbffe5b	-0.023436716
79	0x3de07a98	0.10960883
80	0x3e89f44d	0.269442
81	0x3e60a6b8	0.21938598
82	0x3e32ada6	0.17449054
83	0x3e821b63	0.2541152
84	0x3ed07805	0.40716568
85	0xbd867ba1	-0.06566549
86	0x3e6ed0a8	0.23321784
87	0x3e0ee9f9	0.13956441
88	0x3e8ab428	0.27090573
89	0x3e56dcc1	0.20982648
90	0x3e7b221e	0.24524733
91	0x3e686017	0.22692905
92	0xbc992f14	-0.018699206
93	0x3e6532c4	0.22382647
94	0x3ab4a127	0.0013780937
95	0xbcc5d618	-0.02414994
96	0x3e66e4c6	0.22548208
97	0x3e7300f7	0.23730837
98	0x3e914774	0.28374827
99	0xbcd1610f	-0.025558976
100	0x3e6e0043	0.23242287
101	0x3e6b87d2	0.2300103
102	0x3e94dc91	0.2907453
103	0xbc15107e	-0.00909817
104	0x3e233e11	0.15941645
105	0x3e939d20	0.28830814
106	0x3e5eff4b	0.21777074
107	0x3ea5281f	0.32257172
108	0x3e519c88	0.20469868
109	0x3e761bad	0.24033995
110	0x3ebe3c90	0.3715558
111	0xbc4309bf	-0.011904179
112	0x3e871d41	0.26389506
113	0x3e8608e2	0.26178652
114	0x3e74845e	0.23878619
115	0xbc2c97d3	-0.010534245
116	0xbc90ad21	-0.01766068
117	0xbc93b2cd	-0.018029595
118	0xbd26fadc	-0.040766582
119	0x3e7abd4f	0.24486278
120	0x3e2028f9	0.1564063
121	0x3e6e8ec8	0.23296654
122	0x3e3be568	0.1834923
123	0xbd1d8fb3	-0.03846712
124	0x3de356e6	0.11100559
125	0xbcaf2d1b	-0.021383813
126	0xbd17edba	-0.037091948
127	0x3e664006	0.2248536
